Assets/PlayerModel.onnx (onnx, 59322 bytes, 14 tensors)

StatefulPartitionedCall/sequential_7_1/dense_31_1/Cast/ReadVariableOp:0 f4 [32, 6]
0	0xbe2ccd4f	-0.16875194
1	0xbee9fd18	-0.45700908
2	0xbefd77ed	-0.4950556
3	0xbe8e9681	-0.278492
4	0xbe8c52c6	-0.274069
5	0xbdcb9cfd	-0.099420525
6	0x3e2ccd62	0.16875222
7	0x3ef5b545	0.4798986
8	0x3d0e3d69	0.034726534
9	0x3ed5b80c	0.4174198
10	0x3da55fd2	0.08074917
11	0x3f030700	0.51182556
12	0x3e37b867	0.17941438
13	0x3e927fd7	0.2861316
14	0x3ebd6323	0.36989698
15	0x3f046a32	0.5172454
16	0x3cc11b60	0.023572624
17	0x3efb5d68	0.490947
18	0xbef44ca3	-0.4771472
19	0xbe94218d	-0.28931847
20	0xbdbb2b03	-0.09139063
21	0xbdd1516a	-0.102206066
22	0xbe98cc23	-0.29843244
23	0xbee202ed	-0.44142857
24	0x3d0414d7	0.032246437
25	0xbd356d29	-0.044293556
26	0x3ef72631	0.48271325
27	0x3f0da5f8	0.55331373
28	0x3ea836bb	0.32854256
29	0x3ef0d966	0.47040862
30	0xbece9095	-0.40344682
31	0xbe609d3d	-0.21934982
32	0xbeb01d0b	-0.34397158
33	0xbebd62c4	-0.36989415
34	0xbd2c6b26	-0.042094372
35	0xbee9deb2	-0.45677716
36	0x3eb03ec1	0.34422877
37	0x38ee4ae2	0.000113626724
38	0x3e5eeefe	0.21770856
39	0x3ed566e4	0.41680062
40	0x3e7a020f	0.24414848
41	0x3e5efb27	0.21775495
42	0xbf1294bc	-0.572582
43	0xbdc6dd26	-0.097101495
44	0xbd39b8b3	-0.04534216
45	0x3c0a4441	0.008439125
46	0xbe9de4fb	-0.3083876
47	0xbebcc8b1	-0.36871865
48	0x3eff7745	0.49895683
49	0x3e9f7f77	0.31151935
50	0x3e5e1b4e	0.21690103
51	0xbd8847e0	-0.06654334
52	0x3ef77871	0.48334077
53	0x3d234260	0.039858222
54	0xbe782fb1	-0.24236943
55	0xbdca1e55	-0.098690666
56	0xbee048fc	-0.43805683
57	0xbea393a3	-0.31948575
58	0xbec2c2ca	-0.38039237
59	0x3dbd62db	0.09247371
60	0xbf09b50a	-0.5379187
61	0xbebe3458	-0.3714931
62	0xbeaa9e04	-0.3332368
63	0xbeb23fa1	-0.3481417
64	0x3d00c484	0.031437412
65	0xbed6d16d	-0.41956654
66	0xbe0fe5cf	-0.14052509
67	0xbee555c7	-0.44792005
68	0xbe823e61	-0.25438216
69	0xbf0eda40	-0.55801773
70	0x3c64943f	0.01395136
71	0xbf03c58c	-0.5147331
72	0x3d28a8d7	0.041176643
73	0xbf0d950e	-0.55305564
74	0xbd8fbef8	-0.07018846
75	0xbf24f013	-0.64428824
76	0xbec04339	-0.37551287
77	0x3cfb873f	0.030704139
78	0xbed9e9f9	-0.4256132
79	0xbc4b287c	-0.012399789
80	0xbdfac626	-0.12244825
81	0xbe3738f5	-0.17892821
82	0xbef5a7a3	-0.4797946
83	0xbed18e4f	-0.40928885
84	0x3e45a30c	0.19300479
85	0x3efdabac	0.49545038
86	0x3e544e4a	0.2073299
87	0x3f09c60e	0.5381783
88	0xbcd8a1aa	-0.026444275
89	0x3ee75a8f	0.45186278
90	0x3d8bfb18	0.06835002
91	0x3efd2378	0.49441123
92	0x3db5bb84	0.088736564
93	0x3f09f020	0.53882027
94	0x3e947b97	0.29000542
95	0x3e7bb953	0.24582414
96	0xbed94591	-0.42435887
97	0x3d327c70	0.043575704
98	0xbd63141d	-0.055439103
99	0xbebef3b5	-0.3729531
100	0xbdc956a8	-0.098309815
101	0xbf14625c	-0.57962584
102	0x3f09dc6e	0.53851974
103	0x3ee58cde	0.44834036
104	0x3e8a6d89	0.27036694
105	0x3e5e9ba2	0.21739057
106	0x3e854c33	0.26034698
107	0x3ced51df	0.028969703
108	0x3ee1f52f	0.44132373
109	0x3ed28ee5	0.41124645
110	0x3df08e50	0.11745894
111	0x3f0acf5c	0.54222655
112	0x3e8f3df5	0.27976957
113	0x3d97be3e	0.07409333
114	0xbe83cbac	-0.25741327
115	0xbee7f608	-0.45304894
116	0xbef5270c	-0.47881353
117	0x3d143b4b	0.03618936
118	0xbebe3851	-0.3715234
119	0xbd49f66f	-0.049307283
120	0x3ee81266	0.45326537
121	0xbdc93120	-0.09823823
122	0x3ef3f560	0.47648144
123	0xbde99c09	-0.114067145
124	0x3f01131a	0.5041977
125	0x3ef10e20	0.4708109
126	0xbf166494	-0.5874722
127	0xbec464d5	-0.3835818
128	0x3c43a33a	0.011940772
129	0x3ca6c779	0.020358788
130	0xbeb624bb	-0.35574898
131	0xbe8b6322	-0.2722407
132	0x3f06ed7a	0.5270611
133	0x3ee4489c	0.44586647
134	0x3e594e6e	0.21221325
135	0x3ef6ddb8	0.48216033
136	0x3ea82135	0.32837835
137	0x3e6011fb	0.21881859
138	0xbe9aeb96	-0.30257863
139	0xbe4c6bfd	-0.1996307
140	0xbecc7c7a	-0.39938718
141	0xbf04f992	-0.51943314
142	0xbe8f49fe	-0.2798614
143	0xbf037da0	-0.51363564
144	0xbf222b8d	-0.63347703
145	0xbec961e9	-0.39332512
146	0xbe4d0223	-0.20020346
147	0xbec0d824	-0.37664902
148	0xbd5a05cb	-0.05322818
149	0xbed969b2	-0.42463452
150	0xbee98ebe	-0.45616716
151	0xbea783f9	-0.32717875
152	0xbb2144bf	-0.0024607626
153	0xbed1f433	-0.41006622
154	0xbe8c3400	-0.27383423
155	0xbf0d2601	-0.55136114
156	0xbf14e365	-0.58159477
157	0xbf0f49ea	-0.5597216
158	0xbe4be73a	-0.19912425
159	0xbe1a1b3b	-0.1504945
160	0x3d96928b	0.073521696
161	0x3ca3684e	0.019947197
162	0x3f14be5a	0.58102953
163	0x3eec188b	0.46112475
164	0x3eef03d6	0.46682614
165	0x3ef5742f	0.47940204
166	0x3e854eae	0.2603659
167	0x3e81e4f8	0.25370002
168	0x3eae1b50	0.34005213
169	0x3ea9182e	0.3302626
170	0xbcda28a1	-0.026630701
171	0x3ee1c156	0.44092816
172	0x3ee030e3	0.43787298
173	0x3e5f48df	0.21805142
174	0x3e9e8dbd	0.30967513
175	0xbd2b3493	-0.041798186
176	0x3e37f6c1	0.17965223
177	0x3f09499f	0.5362796
178	0x3f03be6c	0.51462436
179	0x3e9aae30	0.3021102
180	0xbe6ef993	-0.23337393
181	0xbd571a7c	-0.05251549
182	0x3e2fdcc4	0.17174059
183	0xbeaa015b	-0.3320416
184	0xbf00f5a3	-0.5037481
185	0xbedbe957	-0.42951462
186	0x3e5ff4c2	0.21870711
187	0x3f02b080	0.5105057
188	0x3d98d32a	0.07462151
189	0x3f0b408d	0.5439537
190	0x3e4edf8a	0.20202461
191	0xbdbaaabb	-0.091145955

StatefulPartitionedCall/sequential_7_1/dense_31_1/Add/ReadVariableOp:0 f4 [6]
0	0x3e6d5a96	0.23179087
1	0x3e643459	0.22285594
2	0x3e685c96	0.22691569
3	0x3e62ebf3	0.2216032
4	0x3e4d9d3e	0.20079514
5	0x3e5c5478	0.21516597

StatefulPartitionedCall/sequential_7_1/dense_30_1/Cast/ReadVariableOp:0 f4 [64, 32]
0	0x3e18e044	0.149293
1	0x3c94f863	0.018184846
2	0xbb954be5	-0.0045561665
3	0xbdba17db	-0.09086581
4	0xbdcf6342	-0.10126354
5	0x3e068cef	0.131397
6	0xbe13f5e0	-0.14449263
7	0x3e094eeb	0.13409011
8	0x3d906903	0.070512794
9	0x3aa3fb44	0.0012510796
10	0x3ddb6261	0.10712124
11	0xbe57d346	-0.21076688
12	0x3e63f6ed	0.22262163
13	0xbd57b10d	-0.052659083
14	0x3e0a2e93	0.13494329
15	0x3e4db25c	0.2008757
16	0x3bf021c2	0.007328243
17	0x3d2661ba	0.040620543
18	0x3e0b9e21	0.1363454
19	0x3de3b392	0.11118235
20	0x3dd431b2	0.10361041
21	0x3dcdaac8	0.100423396
22	0x3d9ba634	0.0760006
23	0x3c74544a	0.014912674
24	0x3d73af5d	0.05949341
25	0xbb6812d3	-0.003541161
26	0xbda2904c	-0.07937679
27	0x3e0f2439	0.13978662
28	0x3d22cc2d	0.0397455
29	0xbc5fd883	-0.01366246
30	0x3e705967	0.23471604
31	0x3c985e99	0.018599795
32	0x3e843872	0.25824314
33	0x3dbc7625	0.09202222
34	0x3ddb39e3	0.107044004
35	0xbd2b1532	-0.04176826
36	0xbe1f5aa6	-0.15561923
37	0xbe3fe1a6	-0.18738422
38	0x3c77331e	0.015087871
39	0xbcf7964c	-0.030223034
40	0xbdcfce3d	-0.10146759
41	0xbe100d0b	-0.14067475
42	0xbcc39373	-0.02387402
43	0x3db7c39d	0.08972857
44	0xbe2de4f3	-0.16981868
45	0xbe3f02a3	-0.1865335
46	0x3d3ee53b	0.04660533
47	0xbe60707e	-0.21917912
48	0x3e14bebd	0.14525886
49	0x3e45cb1a	0.19315758
50	0x3db4bea8	0.08825427
51	0x3dea8450	0.11451018
52	0x3daf3eba	0.08556886
53	0x3e4546ab	0.19265239
54	0xbe50d64e	-0.20394251
55	0xbe1bfe8f	-0.15233825
56	0xbe20f8b7	-0.15719877
57	0xbdb1bc2d	-0.0867847
58	0xbc52d8d9	-0.012869083
59	0x3cba0593	0.022707736
60	0x3dbb10bf	0.091340534
61	0x3dbe526f	0.09293067
62	0x3e23b584	0.15987211
63	0xbd727a90	-0.059198916
64	0xbe2b4520	-0.16725588
65	0xbba82422	-0.0051312605
66	0x3c38551c	0.01125076
67	0x3e202228	0.1563803
68	0x3cd64a3a	0.02615844
69	0xbdf78c9b	-0.12087365
70	0xbe2c97fc	-0.16854852
71	0xbe2854dc	-0.16438621
72	0xbd5bd713	-0.053671908
73	0xbdf5087a	-0.119645074
74	0xbc188c02	-0.009310724
75	0xbe548a48	-0.20755875
76	0xbd5e119c	-0.054216012
77	0xbe6de1cd	-0.23230667
78	0x3c6f2faa	0.014598766
79	0xbdeda734	-0.11604157
80	0xbe5edd89	-0.21764196
81	0xbe41abd2	-0.189132
82	0xbdfc1641	-0.12308932
83	0xbd01c06c	-0.03167765
84	0x3ba2e908	0.004971627
85	0x3e2a6164	0.16638714
86	0xbc6ef5c9	-0.014584967
87	0xbe064a32	-0.13114241
88	0xbcae82a1	-0.021302523
89	0x3e89d718	0.26921916
90	0xbe286a1a	-0.16446725
91	0xbe5fe17c	-0.21863359
92	0xbd99cff7	-0.07510369
93	0xbe35f066	-0.17767486
94	0xbe763126	-0.24042186
95	0x3e4e1607	0.2012559
96	0xbe197412	-0.14985684
97	0xbe37fefe	-0.17968366
98	0x3e405737	0.1878327
99	0x3e870176	0.26368302
100	0x3c78a4e1	0.015176029
101	0xbdff7a92	-0.1247455
102	0xbe01f3d9	-0.12690677
103	0x3d1b5c7d	0.03793
104	0xbd6033bd	-0.05473684
105	0x3a9cbdf9	0.0011958472
106	0xbdae03c8	-0.08496815
107	0xbdaf9149	-0.08572633
108	0xbe8c61c1	-0.2741833
109	0x3d717a3c	0.058954462
110	0x3d5c983a	0.053856112
111	0x3dbdb5ec	0.092632145
112	0x3dd4ab02	0.1038418
113	0xbd35413c	-0.044251665
114	0xbe40c9dd	-0.18827005
115	0xbde1e847	-0.110306315
116	0x3e7b41ba	0.24536791
117	0x3c662b9c	0.014048483
118	0x3d9c998b	0.076464735
119	0x3d37c848	0.044868737
120	0xbd3a8289	-0.045534644
121	0x3d31c2e1	0.04339874
122	0xbd2d1702	-0.04225827
123	0xbd52f503	-0.051503193
124	0x3e017199	0.1264099
125	0xbdbe2d98	-0.0928604
126	0x3dc5ce5c	0.096585006
127	0xbe4ba70e	-0.19887945
128	0xbc66db9b	-0.014090444
129	0xbe028838	-0.12747276
130	0xbe3f8122	-0.18701604
131	0xbe81b252	-0.2533136
132	0x3d5bb7a2	0.053641923
133	0xbde5addc	-0.11214802
134	0x3bb71d14	0.005588183
135	0xbe41ae00	-0.18914032
136	0x3e5cceff	0.21563338
137	0xbdd9bba6	-0.10631494
138	0x3e5deb27	0.21671735
139	0xbd7ff591	-0.06249005
140	0xbe4843cb	-0.19557111
141	0x3e059310	0.13044381
142	0xbc8b1cc6	-0.016981494
143	0xbe0a2c3e	-0.1349344
144	0xbe69fbd7	-0.22849976
145	0x3e7e7333	0.24848633
146	0xbe391f5e	-0.18078372
147	0xbdbdd66b	-0.092694126
148	0xbe37da0d	-0.17954274
149	0x3db21432	0.08695258
150	0xbe0072b2	-0.12543753
151	0x3cbf54f9	0.023355948
152	0xbe348f91	-0.17632891
153	0xbe85553f	-0.260416
154	0x3e33b942	0.17551139
155	0xbe479c73	-0.19493274
156	0xbd67f930	-0.056634128
157	0xbe283eab	-0.16430156
158	0xbd3be82d	-0.045875717
159	0xbe48af1b	-0.19598047
160	0xbcf9e5d8	-0.030505106
161	0xbe2f9236	-0.17145619
162	0xbe57b304	-0.21064383
163	0x3e25363f	0.16133974
164	0x3df6cba5	0.12050561
165	0xbb202a21	-0.0024439173
166	0xbd5fd0a6	-0.054642342
167	0xbdcfe22b	-0.1015056
168	0x3c86cee5	0.016456077
169	0x3d312615	0.04324921
170	0xbdec2d22	-0.11532046
171	0x3dac4cbd	0.08413074
172	0x3dac294a	0.08406313
173	0xbdf7b020	-0.1209414
174	0x3e33de65	0.17565306
175	0xbd8bfe88	-0.06835657
176	0xbe2cf13f	-0.16888903
177	0xbe0a80aa	-0.13525644
178	0xbdf70234	-0.12060967
179	0xbcffe8b8	-0.031238899
180	0x3d9c6cb3	0.0763792
181	0xbe677f28	-0.226071
182	0xbe01c8ff	-0.1267433
183	0xbc0afbaa	-0.008482853
184	0xbe6d34a1	-0.23164608
185	0xbc38c034	-0.011276294
186	0x3d9f422e	0.07776295
187	0x3d375691	0.04476029
188	0xbe1bba6d	-0.15207835
189	0xbe14f063	-0.14544825
190	0xbe63f953	-0.22263078
191	0x3bbfc62c	0.0058524814
192	0xbe1b9d6a	-0.15196767
193	0xbe41102f	-0.1885383
194	0xbd45e77b	-0.04831646
195	0xbe53c8ef	-0.20682119
196	0xbd74851e	-0.059697263
197	0xbdc7bd88	-0.09752947
198	0xbe230bc2	-0.15922454
199	0xbd2e1f29	-0.042510185
200	0xbe1d523a	-0.15363398
201	0x3dc667aa	0.09687741
202	0xbca2134c	-0.019784592
203	0xbe71d55d	-0.23616548
204	0xbe68e310	-0.22742867
205	0x3cfc70fd	0.030815596
206	0xbdf60864	-0.12013319
207	0xbde6972f	-0.11259305
208	0x3e1ad2c9	0.1511947
209	0xbe6220ea	-0.22082868
210	0xbe1edb17	-0.15513264
211	0x3dbe1ac5	0.0928245
212	0xbd702aa2	-0.058634408
213	0xbdc28e54	-0.09499803
214	0x3e4c0825	0.19924982
215	0xbde7932b	-0.11307367
216	0xbdd3f215	-0.10348908
217	0xbd8042e8	-0.06262761
218	0xbda61178	-0.08108801
219	0xbdafb93c	-0.085802525
220	0xbe1ac57a	-0.15114394
221	0xbdc2a93a	-0.09504934
222	0xbd36dcd4	-0.04464419
223	0x3e4bae8d	0.19890805
224	0xbd54a6bf	-0.051916834
225	0x3e77dd8f	0.24205612
226	0xbe0c94d2	-0.13728645
227	0x3dd42f53	0.10360589
228	0x3ddf8071	0.1091317
229	0xbe22cdf5	-0.15898879
230	0xbcff96bd	-0.031199807
231	0xbd121d61	-0.03567255
232	0x3db927a7	0.09040766
233	0x3e173c58	0.14769113
234	0x3d18ec65	0.03733482
235	0xbdb84dad	-0.089991905
236	0x3e33069f	0.17482994
237	0x3e78642a	0.2425696
238	0xbdae48ac	-0.08509955
239	0x3e11e98b	0.14249246
240	0x3ca0162b	0.01954182
241	0x3d813e6f	0.063107364
242	0x3e6b2926	0.22964916
243	0xbcf6960b	-0.030100843
244	0xbe239028	-0.1597296
245	0x3d3cd97f	0.046105858
246	0xbe385bb2	-0.18003729
247	0xbe079a38	-0.13242424
248	0xbdc246cd	-0.094861604
249	0xbe6047d6	-0.21902403
250	0x3cc22156	0.023697536
251	0xbdf2adde	-0.11849569
252	0x3e19e219	0.15027656
253	0xbd5ef723	-0.054434907
254	0x3d6a47ca	0.05719737
255	0xbd09f5d2	-0.0336817

StatefulPartitionedCall/sequential_7_1/dense_30_1/Add/ReadVariableOp:0 f4 [32]
0	0x3da79577	0.08182805
1	0x3d365d6d	0.04452269
2	0x3d9f8e48	0.0779081
3	0x3cc86ae6	0.024465036
4	0x3ce2d8d9	0.027691292
5	0x3cbff763	0.023433393
6	0x3d765030	0.060135067
7	0x3cc2eafc	0.02379369
8	0x3d7e1439	0.062031005
9	0x3d80b84b	0.06285151
10	0x3d8d792f	0.069078796
11	0x3da7956e	0.08182798
12	0x3d4e6480	0.050388813
13	0x3d6c9ae5	0.057764906
14	0x3dec2341	0.11530162
15	0x3d42c039	0.0475466
16	0x3cd6c833	0.02621851
17	0x3ce7975a	0.028270412
18	0x3d18800d	0.037231494
19	0x3d876b3d	0.06612251
20	0xbd886c4a	-0.066612795
21	0x3d2a052b	0.041508835
22	0x3d895edd	0.06707547
23	0xbd4fcc10	-0.05073172
24	0x3d148e76	0.036268674
25	0xbc45a644	-0.012063567
26	0xbc24aee6	-0.010051465
27	0x3decd50b	0.11564072
28	0x3cc11528	0.023569658
29	0xbc06f6b8	-0.008237533
30	0x3d562915	0.052285273
31	0x3d9fb6af	0.07798516

StatefulPartitionedCall/sequential_7_1/dense_29_1/Cast/ReadVariableOp:0 f4 [128, 64]
0	0xbde21fae	-0.11041199
1	0xbd31568d	-0.043295432
2	0xbc9fc65d	-0.019503767
3	0xbb643c43	-0.0034825958
4	0x3d240576	0.04004427
5	0xbd466768	-0.04843846
6	0xbc93e5ee	-0.018053975
7	0x3d1a71c7	0.037706163
8	0x3d8ee26e	0.06976782
9	0x3dd24a17	0.10268038
10	0x3e2e57d2	0.17025688
11	0x3d13b4ea	0.036061205
12	0x3b991402	0.0046715746
13	0x3d26c695	0.040716726
14	0x3e275fd9	0.16345157
15	0x3e18a7e1	0.1490779
16	0x3db1dce4	0.0868471
17	0xbd49fe27	-0.049314644
18	0xbde25a94	-0.11052433
19	0xbdf5a17c	-0.11993691
20	0x3d916817	0.07099932
21	0x3d115aba	0.035486914
22	0x3e085e7f	0.13317297
23	0xbc90c2e0	-0.017671049
24	0xbd4228e9	-0.047402296
25	0xbe1b3938	-0.15158546
26	0x3db86bf1	0.09004963
27	0x3b40a084	0.002939255
28	0xbcca644e	-0.024706032
29	0xbdecebfd	-0.11568449
30	0x3d9210a4	0.0713208
31	0x3d6e254e	0.058141045
32	0xbe0dd8ef	-0.13852285
33	0xbdf01d8b	-0.11724385
34	0xbc43ad39	-0.011943155
35	0xbddafb67	-0.106924824
36	0xbce81df7	-0.0283346
37	0x38a9afa0	8.091261e-05
38	0x3dcb02aa	0.099126175
39	0xbce9f3c0	-0.028558612
40	0xbb5c3a42	-0.003360406
41	0x3cd149c8	0.025547877
42	0xbd854ea7	-0.06509142
43	0xbd0391f5	-0.032121617
44	0xbdd027b5	-0.101638235
45	0x3db4c8f8	0.08827394
46	0xbd294acf	-0.04133111
47	0xbd4a3774	-0.04936929
48	0xbd70b0a2	-0.0587622
49	0x3e0a34c8	0.13496697
50	0x3e0590e2	0.1304355
51	0xbcf2498d	-0.029576087
52	0x3dbdfcc9	0.092767306
53	0x3e1221cb	0.14270703
54	0xbc61158d	-0.013738048
55	0xbcfe36bb	-0.031031957
56	0x3d1fc15d	0.039002765
57	0xbd3c1416	-0.045917593
58	0x3dbd3022	0.09237696
59	0xbdb35d42	-0.08758022
60	0xbdde1f23	-0.108457826
61	0xbddff2b1	-0.109349616
62	0xbdc42f8c	-0.09579381
63	0xbd015425	-0.031574387
64	0x3d0fff93	0.035155844
65	0x3da01f9f	0.07818531
66	0x3db0da80	0.086354256
67	0x3d6a49ab	0.05719916
68	0x3d52915b	0.051408153
69	0x3e13d1a7	0.14435445
70	0x3e285c91	0.16441561
71	0xbc24a0b7	-0.010048083
72	0x3ddcf969	0.10789759
73	0xbd304973	-0.043038797
74	0x3d4dc285	0.050234336
75	0xbdcde8ea	-0.100541905
76	0xbde9e4dd	-0.11420605
77	0xbdbc6690	-0.0919925
78	0x3c567922	0.013090404
79	0xbd8a6bac	-0.06758818
80	0xbd63da0b	-0.055627864
81	0xbb6dcbfb	-0.0036284912
82	0xb7940990	-1.7647428e-05
83	0xbd4385ea	-0.047735132
84	0x3dbccfd0	0.092193246
85	0xbd31f250	-0.043443978
86	0xbae0557a	-0.0017115318
87	0x3de44575	0.111460604
88	0x3d52301a	0.051315404
89	0x3d9d965d	0.07694695
90	0xbc9cd9e7	-0.019146873
91	0x3dad1333	0.084509276
92	0x3bd12624	0.0063827205
93	0x3dd8f50c	0.10593614
94	0xbe1f6012	-0.15563992
95	0xbdf4663b	-0.119335614
96	0xbe0bbc58	-0.13646066
97	0x3cf81b4a	0.03028645
98	0x3cf4986f	0.029857842
99	0x3ca49883	0.020092255
100	0xbe0468a0	-0.12930536
101	0x3e2c0ff6	0.16802964
102	0x3d19e574	0.03757234
103	0xbd886d2b	-0.06661447
104	0x3e0f256c	0.13979119
105	0x3dc6c45a	0.0970542
106	0xbcb65804	-0.022258766
107	0x3d81a870	0.06330955
108	0x3ae7f13c	0.0017695795
109	0x3c1a87bc	0.009431776
110	0x3dcdc833	0.100479506
111	0x3defb005	0.11703495
112	0x3db84f6b	0.08999523
113	0x3cfef3b8	0.031122074
114	0x3d6bc808	0.05756381
115	0xbd93d30b	-0.072179876
116	0xbdd47169	-0.10373194
117	0x3d4c60e0	0.049897075
118	0xbdca84b7	-0.098885946
119	0xbcf2c5fc	-0.029635422
120	0x3e12bbe1	0.14329483
121	0xbd844827	-0.064590745
122	0x3e0e438b	0.13892953
123	0xbc761ff5	-0.015022268
124	0x3d10d600	0.035360336
125	0x3d37fe78	0.044920415
126	0xbd6abe87	-0.057310607
127	0x3d106049	0.035248075
128	0xbdc0703c	-0.09396407
129	0xbd2d7ff7	-0.042358365
130	0x3dda9056	0.10672061
131	0xbe127524	-0.14302498
132	0x3dab6b25	0.083700456
133	0xbd78a863	-0.06070746
134	0x3e1b92dc	0.15192741
135	0x3c96108e	0.01831844
136	0xbe1029be	-0.14078423
137	0xbddf69d9	-0.10908861
138	0x3c917d7c	0.01776003
139	0x3e0e9621	0.13924457
140	0xbd0c40bb	-0.03424142
141	0xbc3e7dbd	-0.011626658
142	0x3df3150d	0.118692495
143	0x3df463e8	0.11933118
144	0xbabf75c9	-0.0014607246
145	0x3be61e09	0.0070226234
146	0xbda7164a	-0.08158548
147	0x3d61c5dc	0.055120334
148	0xbd70fe46	-0.058836244
149	0xbd177cd1	-0.03698427
150	0x3df32fc3	0.11874344
151	0x3bdf51bd	0.006815164
152	0x3ded2687	0.11579614
153	0xbda3b808	-0.079940856
154	0xbddb486e	-0.10707174
155	0xbdd82372	-0.10553636
156	0x3e0b9e29	0.13634552
157	0x3ddafc42	0.106926456
158	0x3d57a9ee	0.052652292
159	0xbe02b008	-0.12762463
160	0x3cb1677f	0.021655796
161	0x3d5476e2	0.051871188
162	0x3d1a65f4	0.037694886
163	0xbde1d51b	-0.11026975
164	0x3e4e3fb0	0.20141482
165	0x3d8d2918	0.06892604
166	0xbdbf2bda	-0.09334536
167	0xbd758538	-0.0599415
168	0x3d23c6b0	0.039984405
169	0xbbf0c01b	-0.0073471195
170	0x3e1c506d	0.15265055
171	0xbe1eb644	-0.15499216
172	0xbd54b284	-0.05192806
173	0x3db22e8b	0.087002836
174	0xbd6801be	-0.056642286
175	0xbc482338	-0.012215428
176	0xbdc869b4	-0.09785786
177	0xbe19ff96	-0.15038905
178	0xbe2194ed	-0.15779467
179	0x3db2c8de	0.087297186
180	0xbd06a58a	-0.032872714
181	0xbd65c864	-0.05609931
182	0xbd6b6e6b	-0.05747835
183	0x3e0bfa86	0.13669786
184	0xbe137639	-0.14400567
185	0x3dc5e46d	0.096627094
186	0xbbef5da2	-0.007304863
187	0xbd0c6e65	-0.034284968
188	0xbd56ff81	-0.05248976
189	0xbdaa9d46	-0.08330779
190	0x3cb4f6e6	0.022090387
191	0x3dae6c77	0.08516782
192	0xbdb9a900	-0.09065437
193	0xbe0ec0a3	-0.13940673
194	0xbcc079a7	-0.023495508
195	0x39a4834b	0.00031378338
196	0x3df6f327	0.120580964
197	0xbd70e6fe	-0.05881404
198	0xbca8e365	-0.020616243
199	0xbdd1452d	-0.10218272
200	0x3e3ca50e	0.18422338
201	0xbbd2cbba	-0.0064329775
202	0x3b1baf06	0.0023755445
203	0xbcb0eedc	-0.021598272
204	0x3d04fa71	0.032465402
205	0xbe1108be	-0.14163491
206	0xbe1a764d	-0.1508419
207	0x3dc502f7	0.09619706
208	0xbc3c2d2c	-0.011485379
209	0xbda595de	-0.080852255
210	0x3e245362	0.16047433
211	0x3d741221	0.0595876
212	0xbe21cea2	-0.1580148
213	0xbe22bc0c	-0.15892047
214	0x3daa6f5b	0.083220206
215	0xbd71622e	-0.058931522
216	0x3e2d9ac1	0.16953565
217	0xbe000e2b	-0.12505405
218	0xbb6385a3	-0.0034717105
219	0xbe015295	-0.12629159
220	0x3dd728b4	0.105058104
221	0x3d565257	0.05232462
222	0xbda752ba	-0.08170076
223	0xbceabc44	-0.028654225
224	0xbd8ac78a	-0.0677634
225	0x3ddaac6f	0.1067742
226	0x3ce4e6f1	0.027942153
227	0xbe0001a0	-0.1250062
228	0xbd424072	-0.04742474
229	0x3d80f83b	0.06297346
230	0xbd02dd2c	-0.031949207
231	0xbdb1ab81	-0.0867529
232	0x3cff79e9	0.031186061
233	0x3d1d8512	0.038456984
234	0xbdc6644f	-0.09687101
235	0xbdadfc21	-0.084953554
236	0x3daa271a	0.08308239
237	0x3dec8cfc	0.11550328
238	0xbced38b0	-0.028957695
239	0xbd7c10ac	-0.061539337
240	0xbcada1cb	-0.021195313
241	0x3ddd8e39	0.108181424
242	0x3e23b52d	0.15987082
243	0x3e09f0df	0.13470791
244	0x3d949f31	0.07256926
245	0xbcae6755	-0.021289507
246	0xbb58e7dd	-0.0033097186
247	0x3c8b5db3	0.017012453
248	0x3de59c2f	0.1121143
249	0x3da5b57b	0.08091255
250	0xbe219544	-0.15779597
251	0x3cdbcb34	0.026830293
252	0xbcd16066	-0.025558662
253	0x3c57f048	0.013179846
254	0x3c08c4d3	0.008347708
255	0x3c93e3d0	0.018052965

StatefulPartitionedCall/sequential_7_1/dense_29_1/Add/ReadVariableOp:0 f4 [64]
0	0x3d91f92b	0.07127603
1	0x3c3c9f1c	0.011512544
2	0x3d96669b	0.07343789
3	0x3c1b02b7	0.0094610965
4	0xbb201c6e	-0.0024431008
5	0xbbda1368	-0.0066551454
6	0x3cecff91	0.028930457
7	0xbc3e35a8	-0.011609472
8	0x3d34f2ed	0.044176985
9	0x3c82cf0b	0.015967866
10	0xbb218059	-0.0024643152
11	0xbdb165df	-0.086620085
12	0x3c4e03d4	0.012574155
13	0x3d0634a4	0.032765046
14	0xba277efa	-0.00063894654
15	0xbc1c5c38	-0.009543471
16	0x3d13b939	0.036065314
17	0xbca9ff3e	-0.020751592
18	0xbceb6d22	-0.028738562
19	0xbb5afe55	-0.0033415754
20	0x3c8f5fcd	0.017501736
21	0x3c116767	0.008874751
22	0xbd098fe5	-0.033584494
23	0x3ce4f4bb	0.027948728
24	0xbc763e7f	-0.015029549
25	0xbcae6a2d	-0.021290863
26	0x3d036b01	0.03208447
27	0x3b8e7ac0	0.004348129
28	0x3caa21e7	0.020768119
29	0xbcc5e96b	-0.024159154
30	0x3b99d4a1	0.004694537
31	0x3d19e2c4	0.037569776
32	0x3d20a6d6	0.039221607
33	0x3d2826ff	0.041052815
34	0xbc42c673	-0.011888134
35	0x3d84497f	0.06459331
36	0x3d0a90e2	0.033829577
37	0x3c552c85	0.013011103
38	0x3c72eb73	0.014826643
39	0xbd6bdc85	-0.05758335
40	0xbd599353	-0.053119015
41	0xbd0d0cbd	-0.034435976
42	0xbd4927bb	-0.049110156
43	0xbadef949	-0.0017011549
44	0xbce3acb2	-0.027792308
45	0x3cfa400d	0.03054812
46	0x3d2c21ee	0.042024545
47	0x3ca7008d	0.020386005
48	0x3d2c2c9d	0.042034734
49	0x3c97fc7e	0.018553015
50	0x3cbe4cad	0.023229921
51	0x3d164713	0.036688875
52	0x3d5948f6	0.053048097
53	0xbc020621	-0.007936032
54	0xbc9088a7	-0.017643286
55	0x3d4ed7fd	0.05049895
56	0xbc406598	-0.011742972
57	0x3a8820cd	0.0010385752
58	0xbc15f1c5	-0.009151881
59	0x3ca5a252	0.020219002
60	0xbc54bed8	-0.012984954
61	0x3cbc3eb7	0.022979124
62	0x3cb09b61	0.021558465
63	0xbc3e3304	-0.011608843

StatefulPartitionedCall/sequential_7_1/dense_28_1/Cast/ReadVariableOp:0 f4 [17, 128]
0	0xbe265dbd	-0.16246696
1	0x3e2947bf	0.16531275
2	0xbdcf84ef	-0.10132777
3	0xbc5b581b	-0.013387705
4	0xbe3e12fa	-0.18561926
5	0xbdb87a48	-0.09007698
6	0xbb1056ed	-0.0022024468
7	0x3dd207af	0.10255372
8	0x3e0f08d3	0.1396821
9	0x3dc7fbe0	0.09764838
10	0xbe45eb77	-0.19328104
11	0x3baf245c	0.0053449105
12	0xbdea0bfe	-0.114280686
13	0x3ce7ab1d	0.028279835
14	0xbe0a1952	-0.13486221
15	0x3d906ffe	0.07052611
16	0xbcc70e8a	-0.024298925
17	0xbe1d5ac0	-0.1536665
18	0xbe24d5e2	-0.16097215
19	0xbc52848a	-0.012848983
20	0x3d38f07e	0.045151226
21	0x3e52af11	0.20574595
22	0xbe0f9610	-0.14022088
23	0x3ce3c894	0.027805604
24	0x3dbc7730	0.09202421
25	0x3d3ed485	0.046589393
26	0x3da03a39	0.07823605
27	0xbe2383b0	-0.15968204
28	0xbdcd78ff	-0.10032844
29	0x3de42c4a	0.1114126
30	0xbce39b8f	-0.027784137
31	0x3e21c4ce	0.15797731
32	0xbd80b94d	-0.06285343
33	0x3e32c646	0.17458448
34	0xbe2c6221	-0.16834308
35	0xbd369c77	-0.04458281
36	0x3d9e2778	0.07722372
37	0xbe141dfb	-0.14464562
38	0x3ae9e780	0.0017845482
39	0x3da5f133	0.08102646
40	0xbe076121	-0.13220645
41	0x3d420c57	0.04737505
42	0xbd0be2da	-0.03415189
43	0xbdd5a665	-0.10432128
44	0xbdd2d0b1	-0.10293711
45	0x3da7bf84	0.081908256
46	0xbd9645b2	-0.07337512
47	0xbe42fbf6	-0.19041428
48	0x3e218289	0.15772451
49	0xbd2b795f	-0.041863795
50	0xbc03f919	-0.008054995
51	0x3e049502	0.12947467
52	0x3db9e275	0.090763964
53	0x3e065394	0.1311782
54	0xbd3d34cb	-0.046192925
55	0x3e1783a4	0.1479631
56	0xbd706538	-0.05869028
57	0xbe45f1db	-0.19330542
58	0xbde119de	-0.10991262
59	0x3e3949f5	0.18094619
60	0x3d1f1e5f	0.038847324
61	0x3d050b5f	0.032481547
62	0x3d6161be	0.055024855
63	0xbdb9b74b	-0.090681635
64	0xbd39afc3	-0.045333635
65	0xbe0d5f68	-0.13805926
66	0xbe43e8f1	-0.19131829
67	0x3defa16f	0.11700713
68	0xbe14d49c	-0.14534229
69	0xbe179784	-0.14803892
70	0x3c97f0fa	0.018547524
71	0x3e10ecf4	0.1415289
72	0x3dcb1e89	0.099179335
73	0x3dd8dae8	0.10588628
74	0x3db8ec52	0.090294495
75	0xbe333164	-0.1749931
76	0xbc7df4a7	-0.015500224
77	0xbd19c3fa	-0.037540413
78	0xbdc14f18	-0.09438914
79	0xbd983e40	-0.07433748
80	0x3e3673cf	0.17817615
81	0xbd1397a0	-0.036033273
82	0xbce304d3	-0.027712261
83	0x3dccf576	0.100077555
84	0xbd2c3cee	-0.042050295
85	0xbd4d50ff	-0.050126072
86	0xbd957fda	-0.072997764
87	0x3c491948	0.012274094
88	0xbda3ddfd	-0.08001325
89	0x3dd42e33	0.10360374
90	0x3e26f981	0.16306116
91	0x3de2f085	0.11081032
92	0xbc8074fe	-0.015680786
93	0xbdc19703	-0.09452631
94	0xbd873551	-0.06601966
95	0x3e15f81f	0.14645432
96	0x3db0490c	0.086076826
97	0xbcce5a2d	-0.025189484
98	0xbe1cf2c2	-0.1532698
99	0xbde99c3f	-0.11406755
100	0x3d0e871b	0.034796815
101	0xbce56078	-0.028000101
102	0x3da314d8	0.0796296
103	0xbd99cedf	-0.07510161
104	0xbd173a96	-0.036921106
105	0x3d4d32d1	0.05009729
106	0xbdb750a2	-0.08950926
107	0xbd995ad6	-0.07488029
108	0xbd12ff87	-0.03588822
109	0x3ca22dd9	0.019797252
110	0x3e22fb4c	0.15916175
111	0x3e01ae7f	0.12664221
112	0xbe2c4f7b	-0.16827194
113	0x3e1c2bdb	0.15251105
114	0x3e3f5756	0.1868566
115	0xbd3f65db	-0.046727996
116	0xbd922293	-0.07135501
117	0xbde42958	-0.11140698
118	0x3dc313ba	0.09525247
119	0x3d948330	0.072515845
120	0xbdf0951e	-0.11747192
121	0x3e2cbe8b	0.16869561
122	0xbd2fa79c	-0.042884454
123	0x3d58aa20	0.05289662
124	0xbdcb15c8	-0.09916264
125	0xbde2f33f	-0.11081552
126	0xbdb492d6	-0.08817069
127	0xbdd928dc	-0.106034964
128	0xbe489fbf	-0.19592188
129	0x3d92934f	0.07157003
130	0x3d1aa264	0.037752524
131	0xbd7d694e	-0.061868005
132	0x3de73fa8	0.11291438
133	0xbe13c5ed	-0.14430971
134	0x3e05c9a9	0.13065208
135	0x3d271858	0.0407947
136	0xb9a070a8	-0.00030601514
137	0xbe1cef36	-0.15325627
138	0xbc9961fb	-0.018723479
139	0xbe0947be	-0.13406274
140	0x3d923a98	0.07140082
141	0xbd708899	-0.05872402
142	0x3e2eff05	0.1708947
143	0xbd909219	-0.07059116
144	0x3cd82c5f	0.026388345
145	0x3c94b5e5	0.01815314
146	0x3e051958	0.12997949
147	0xbe1eef94	-0.1552108
148	0xbd996dde	-0.07491659
149	0x3d5a3f35	0.053282935
150	0x3e7c6669	0.24648441
151	0xbe68a779	-0.22720136
152	0x3e06bb99	0.131575
153	0x3ceed416	0.029153865
154	0xbdbf741e	-0.093483195
155	0x3d378b1a	0.044810392
156	0x3c6d3c8d	0.014479768
157	0x3bdb340b	0.0066895536
158	0x3df77048	0.12081963
159	0xbb108c44	-0.002205626
160	0x3df90176	0.12158482
161	0xbe4904ec	-0.19630784
162	0xbe1540e1	-0.1457553
163	0xbd2fbdf0	-0.042905748
164	0x3b81ae98	0.003957581
165	0xbe1c19c6	-0.15244207
166	0xbd7e58d9	-0.06209645
167	0xbe054e85	-0.13018234
168	0xbd82eb34	-0.06392518
169	0x3e308905	0.17239769
170	0x3d07dfa2	0.033172257
171	0x3e26b769	0.16280903
172	0xbe081504	-0.13289267
173	0xbcd5f7cb	-0.026119133
174	0xbddaedbf	-0.10689878
175	0x3d125081	0.035721306
176	0xbdfd95a3	-0.123820566
177	0xbe390239	-0.18067254
178	0xbd9e7895	-0.07737843
179	0xbd5def7d	-0.054183472
180	0xbdf31b22	-0.118704095
181	0x3d4792ea	0.048724093
182	0x3e2b575f	0.16732548
183	0xbd068f2a	-0.032851376
184	0xbe1ec44d	-0.1550457
185	0xbdeb7920	-0.11497712
186	0x3e813e1a	0.25242692
187	0x3d9e83a6	0.07739954
188	0x3d0ebdf9	0.03484914
189	0xbe1f4524	-0.15553719
190	0x3d92ff9d	0.071776606
191	0x3e08d032	0.1336067
192	0xbe4e67bd	-0.2015676
193	0x3da00d3e	0.07815026
194	0x3dc579da	0.09642382
195	0xbc8a824c	-0.016907834
196	0x3df60c6f	0.1201409
197	0x3e287658	0.16451395
198	0x3e43139b	0.19050448
199	0xbe1b8559	-0.15187587
200	0x3d9ee267	0.077580266
201	0x3d94e5b1	0.07270373
202	0x3dfb9c19	0.12285633
203	0x3c34fc18	0.011046432
204	0x3dc87507	0.09787946
205	0xbbe905bd	-0.0071112798
206	0xbb98f3be	-0.004667728
207	0x3e1792cd	0.14802094
208	0x3df8f024	0.12155178
209	0x3d87cc94	0.06630817
210	0x3db6ac14	0.0891954
211	0x3e3740eb	0.17895858
212	0x3e125cfe	0.14293286
213	0x3d2ca293	0.04214723
214	0xbde3ca75	-0.111226
215	0x3d86888d	0.06569014
216	0xbda7f6b0	-0.08201349
217	0x3dc24c08	0.09487158
218	0xbe332eac	-0.17498273
219	0xbd078cd9	-0.033093307
220	0xbaf12cde	-0.0018400212
221	0xbd86d225	-0.06583051
222	0x3da6f99a	0.081530765
223	0x3b53ec7c	0.0032337
224	0xbe2b9159	-0.16754664
225	0x3d4bf414	0.049793318
226	0x3d37281f	0.044715997
227	0xbe007758	-0.12545526
228	0x3db80971	0.08986176
229	0x3e0a5952	0.13510635
230	0xbcf7d00d	-0.030250574
231	0x3da3f7ca	0.080062464
232	0xbd9570f4	-0.07296935
233	0xbe45a21e	-0.19300124
234	0xbe319791	-0.17342974
235	0xbc7c7c28	-0.0154104605
236	0xbe6cc85c	-0.23123306
237	0xbc609016	-0.013706228
238	0x3deee17e	0.11664103
239	0xbd6bc754	-0.05756314
240	0xbd27ff46	-0.041014932
241	0x3d67cd37	0.056592193
242	0x3e741c71	0.23838975
243	0x3cb1fc42	0.021726731
244	0xbcbec0df	-0.023285327
245	0xbdcbbc38	-0.09948009
246	0xbe2b583e	-0.1673288
247	0x3c8fbe9a	0.01754694
248	0xbe2dc991	-0.16971423
249	0x3c99911f	0.018745957
250	0x3db300bb	0.08740374
251	0xbdde2c40	-0.10848284
252	0xbe50fb84	-0.20408446
253	0xbdb5245a	-0.08844824
254	0x3dcf26d7	0.1011483
255	0xb9cac7e7	-0.0003867738

StatefulPartitionedCall/sequential_7_1/dense_28_1/Add/ReadVariableOp:0 f4 [128]
0	0xbd2e97fc	-0.042625412
1	0x3cb3d4d5	0.021952072
2	0x3ba6a981	0.0050861244
3	0x3ba7af89	0.005117361
4	0xbcfeef08	-0.031119838
5	0xbdce28c4	-0.10066369
6	0xbdbb67d5	-0.09150664
7	0x3d1c228c	0.038118884
8	0x3d6d595b	0.057946544
9	0x3b0c5bad	0.0021416948
10	0xbd23366f	-0.039846834
11	0x3d2d6639	0.042333815
12	0xbc997f39	-0.018737422
13	0x3cefa722	0.0292545
14	0xbc7f5049	-0.015583106
15	0x3beba0dc	0.007190807
16	0xbc42d440	-0.011891425
17	0xbc303cf4	-0.01075672
18	0xbd61c4e6	-0.055119418
19	0xbc8209d3	-0.015873825
20	0xbd1e6e55	-0.03867944
21	0xbcaf1d1c	-0.021376185
22	0xbd0766f2	-0.03305716
23	0x3c89aa26	0.016804766
24	0x3af9527b	0.0019021773
25	0x3cdb6187	0.026779903
26	0xbc809089	-0.01569392
27	0xbd0745aa	-0.03302542
28	0xbd8c1e20	-0.068416834
29	0x3d1c210d	0.038117457
30	0xbca5581a	-0.020183612
31	0xbcc5f390	-0.024163991
32	0xbbdbfc46	-0.006713423
33	0xbcfa9974	-0.03059075
34	0xbc7e649a	-0.015526915
35	0xbd1deb85	-0.038554687
36	0xbd4d249a	-0.050083734
37	0x3d4c08b4	0.049812987
38	0xbd040b92	-0.032237597
39	0xbcb8df68	-0.022567466
40	0x3a61d0ec	0.00086142006
41	0xbd025392	-0.03181798
42	0xbce6ca28	-0.028172567
43	0xbd1c0a8e	-0.038096003
44	0x3d504e13	0.050855707
45	0xbc836b96	-0.016042512
46	0xbcf0c3a8	-0.029390171
47	0x3c4f64b1	0.012658284
48	0x3d0bea99	0.034159277
49	0xba98fbc3	-0.001167171
50	0x3add2502	0.0016871991
51	0x3b50756e	0.0031808275
52	0x3c95b190	0.018273145
53	0x3c8280e2	0.015930597
54	0x3d214034	0.03936787
55	0x3d213acd	0.039362717
56	0xbd9423e8	-0.07233411
57	0xbd5c3151	-0.05375797
58	0x3d91d231	0.07120169
59	0xbc2f5675	-0.010701765
60	0xbd01e823	-0.031715523
61	0xbb0ca196	-0.0021458617
62	0xbcdf5f40	-0.027267098
63	0xbc3c05ad	-0.011475963
64	0xbc0782da	-0.008270944
65	0xbc04d60f	-0.008107676
66	0xbcb428c7	-0.0219921
67	0x3c2eb393	0.010662931
68	0x3d06099e	0.032724015
69	0x3c26e669	0.01018677
70	0x3cc13cb7	0.023588521
71	0xbc5e119a	-0.013554001
72	0xb9d636e4	-0.00040858157
73	0x3c2acde4	0.010425065
74	0x3c53b686	0.012921935
75	0x3c6d6dfc	0.014491554
76	0xbbc4248d	-0.0059858025
77	0x3c14c3c3	0.009079876
78	0x3d1140cd	0.03546219
79	0x3cadbbe6	0.021207761
80	0x3c35941c	0.011082675
81	0x3cfdb1ed	0.03096863
82	0xbcf6c979	-0.030125367
83	0xbb40143f	-0.0029308943
84	0xbc216ae1	-0.009852142
85	0x3cf39f81	0.029739143
86	0xbce8d2d0	-0.028420836
87	0x3cb45578	0.02201341
88	0x3cd66848	0.026172772
89	0x3d090c4b	0.03345899
90	0xbb1c6c42	-0.0023868238
91	0xbc872a29	-0.016499596
92	0x3d27ce26	0.040968083
93	0xbd3fe108	-0.046845466
94	0xbc7407ff	-0.014894485
95	0x3c8b5e7a	0.017012823
96	0xbcc4f73c	-0.024043672
97	0xbd41434f	-0.04718333
98	0x3cbe5147	0.023232115
99	0xbd14c35c	-0.03631912
100	0xbc31da10	-0.010855213
101	0x3d1ad355	0.0377992
102	0x3d13f9e7	0.036126997
103	0xbcfab438	-0.030603513
104	0x3ab3c692	0.0013715795
105	0xbade0ccf	-0.0016941073
106	0x3cdbe586	0.026842844
107	0xbd450999	-0.048104856
108	0x3d0b297c	0.03397511
109	0x3d1b5a5e	0.037927978
110	0x3d68a48f	0.05679756
111	0xbd19716d	-0.037461687
112	0xbd6055ae	-0.05476921
113	0xbd138820	-0.03601849
114	0x3d0d875e	0.034552924
115	0xbc449a3d	-0.011999664
116	0xbd7633f2	-0.060108133
117	0xbd33c880	-0.043892384
118	0x3d24464c	0.040106103
119	0xbc89ac26	-0.01680572
120	0xbc111684	-0.008855466
121	0xbd5b4f9e	-0.053542726
122	0x3d7dd7ce	0.061973386
123	0x3b5ebad8	0.003398588
124	0x3cee0de6	0.029059362
125	0xbd6ae16f	-0.057343896
126	0x3d84941a	0.06473561
127	0x3b379373	0.002801147

StatefulPartitionedCall/sequential_7_1/batch_normalization_23_1/batchnorm/sub:0 f4 [32]
0	0xbf388928	-0.72084284
1	0xbd287630	-0.041128337
2	0xbd98225c	-0.074284285
3	0xbf1f52b0	-0.62235546
4	0xbda80458	-0.082039535
5	0xbf18ffd2	-0.5976535
6	0xbc5cbce0	-0.013472766
7	0xbf3494d8	-0.7053962
8	0xbcce8ba0	-0.025213063
9	0xbf39dee4	-0.7260573
10	0xbf17f726	-0.59361494
11	0xbf270f99	-0.65258175
12	0xbf2c9ad9	-0.6742378
13	0xbf284f3f	-0.6574592
14	0xbe1ecd40	-0.15507984
15	0xbd8cdb8c	-0.06877813
16	0xbf2f9128	-0.68580866
17	0xbd6cd078	-0.057816
18	0xbd1ada68	-0.037805945
19	0xbf2f8166	-0.6855682
20	0xbd8b0b60	-0.06789279
21	0xbf2556a8	-0.6458535
22	0xbdb24ff4	-0.08706656
23	0xbf152c94	-0.58271146
24	0xbf281070	-0.6565008
25	0xbf0f5dc0	-0.56002426
26	0xbf234d02	-0.6378938
27	0xbe035f22	-0.12829259
28	0xbd805f14	-0.06268135
29	0xbd8e10f0	-0.06936824
30	0xbf257607	-0.6463322
31	0xbd9b64a4	-0.07587555

StatefulPartitionedCall/sequential_7_1/batch_normalization_23_1/batchnorm/mul:0 f4 [32]
0	0x3f48a7e6	0.7838119
1	0x3f529f69	0.8227449
2	0x3f31c02f	0.69433874
3	0x3f49ea1d	0.78872854
4	0x3f2aedb2	0.66768944
5	0x3f4af13e	0.79274356
6	0x3f4d21e1	0.8012982
7	0x3f383bfc	0.7196653
8	0x3f3b1c69	0.73090225
9	0x3f21a0da	0.63136065
10	0x3f5c1ee5	0.8598464
11	0x3f2f3453	0.68439215
12	0x3f108502	0.56452954
13	0x3f23df49	0.6401258
14	0x3f5ba88f	0.85804075
15	0x3f2bb37d	0.6707075
16	0x3f3d4690	0.73935795
17	0x3f3ad3f8	0.7297969
18	0x3f31675c	0.6929834
19	0x3f5ac639	0.85458714
20	0x3f0f3d56	0.55952966
21	0x3f2e343d	0.6804846
22	0x3f3733b8	0.7156329
23	0x3f25a33d	0.64702207
24	0x3f23e6a7	0.6402382
25	0x3f28a397	0.6587462
26	0x3f3a2856	0.727178
27	0x3f3fe67a	0.74961054
28	0x3f2a609d	0.6655367
29	0x3f353a49	0.7079206
30	0x3f14e400	0.581604
31	0x3f3cbc2e	0.7372464

StatefulPartitionedCall/sequential_7_1/batch_normalization_22_1/batchnorm/sub:0 f4 [64]
0	0xbea5eb9d	-0.3240632
1	0xbec35420	-0.3815012
2	0xbefce602	-0.49394232
3	0xbee39a10	-0.44453478
4	0xbee234b9	-0.4418085
5	0xbecb3f9c	-0.39696968
6	0xbed94dd4	-0.4244219
7	0xbeb780ca	-0.35840446
8	0xbebaf024	-0.36511338
9	0xbea957dc	-0.33074844
10	0xbea9b376	-0.3314473
11	0xbeb4307d	-0.35193244
12	0xbec008fe	-0.3750686
13	0xbebdbde3	-0.37058935
14	0xbec7e3fa	-0.3904112
15	0xbea0def1	-0.3142009
16	0xbedac825	-0.42730823
17	0xbeb5f720	-0.35540104
18	0xbea5a5c5	-0.32353035
19	0xbecde25e	-0.40211767
20	0xbed3b263	-0.41347036
21	0xbeba3e65	-0.36375728
22	0xbe9ff4f8	-0.31241584
23	0xbee54352	-0.44777924
24	0xbeaeea55	-0.34163156
25	0xbeb4fb68	-0.35348058
26	0xbeda6b09	-0.42659786
27	0xbec8668b	-0.39140734
28	0xbec54c1a	-0.38534623
29	0xbeafc7cf	-0.3433213
30	0xbedb0057	-0.42773697
31	0xbece00de	-0.40235037
32	0xbec6beae	-0.38817352
33	0xbecddc34	-0.40207064
34	0xbeaa28a5	-0.33234134
35	0xbed8c922	-0.42340952
36	0xbe8269f6	-0.25471467
37	0xbec39a24	-0.38203537
38	0xbeb9b7aa	-0.36272937
39	0xbe81fdfd	-0.2538909
40	0xbe912410	-0.28347826
41	0xbea486c2	-0.32134062
42	0xbec30a77	-0.38093922
43	0xbea3b0e7	-0.31970903
44	0xbeb2718f	-0.34852263
45	0xbeae0de7	-0.33994982
46	0xbed1283b	-0.40851006
47	0xbe98493c	-0.29743373
48	0xbee033f3	-0.43789634
49	0xbec2481d	-0.37945643
50	0xbec9c23f	-0.3940601
51	0xbed2ec73	-0.4119602
52	0xbeda5c5e	-0.42648596
53	0xbeb3292f	-0.34992358
54	0xbeae3776	-0.34026688
55	0xbee0f3ff	-0.43936154
56	0xbe941da1	-0.28928855
57	0xbecbfb69	-0.39840248
58	0xbeb09375	-0.344875
59	0xbecda3fa	-0.40164167
60	0xbed4ea91	-0.4158521
61	0xbec0c995	-0.37653795
62	0xbeabf846	-0.33587855
63	0xbe8bbe23	-0.272935

StatefulPartitionedCall/sequential_7_1/batch_normalization_22_1/batchnorm/mul:0 f4 [64]
0	0x3f8859d4	1.0652413
1	0x3f75a612	0.9595653
2	0x3f61eb25	0.8824943
3	0x3f5e18af	0.86756414
4	0x3f41f097	0.75757736
5	0x3f492ca1	0.78583723
6	0x3f5c1952	0.85976136
7	0x3f4f01be	0.80862033
8	0x3f6377cc	0.8885467
9	0x3f3d8128	0.740252
10	0x3f7da570	0.9908056
11	0x3f42149d	0.75812703
12	0x3f77dbf3	0.9681999
13	0x3f8b2ed3	1.0873665
14	0x3f70a0a8	0.9399514
15	0x3f81e371	1.0147535
16	0x3f8b81ef	1.0899028
17	0x3f72cec7	0.9484677
18	0x3f5b9ed0	0.85789204
19	0x3f78ab5e	0.97136486
20	0x3f6273ac	0.8845775
21	0x3f524675	0.8213876
22	0x3f4be552	0.7964679
23	0x3f71d058	0.9445853
24	0x3f6ce94d	0.9254349
25	0x3f6c8e3a	0.9240452
26	0x3f8763f0	1.0577374
27	0x3f852c42	1.0404131
28	0x3f5fcdb1	0.87423235
29	0x3f2de0f7	0.67921394
30	0x3f58d8f4	0.84706044
31	0x3f8cd1c9	1.1001521
32	0x3f5ed243	0.87039584
33	0x3f4f8e5a	0.81076586
34	0x3f48bc90	0.78412724
35	0x3f79dd9d	0.9760378
36	0x3f6ebcc7	0.932568
37	0x3f6b23df	0.9185161
38	0x3f569940	0.8382759
39	0x3f46a70f	0.7759866
40	0x3f466e0b	0.7751166
41	0x3f478339	0.77934605
42	0x3f85187b	1.0398096
43	0x3f36376f	0.71178335
44	0x3f45c13e	0.7724799
45	0x3f48eaec	0.7848346
46	0x3f57af3f	0.8425178
47	0x3f619abf	0.8812675
48	0x3f6b80d6	0.91993463
49	0x3f7418a6	0.9535011
50	0x3f7ab92e	0.9793881
51	0x3f4f156f	0.8089208
52	0x3f8988ef	1.0744914
53	0x3f2f7d37	0.6855044
54	0x3f6ea80e	0.9322518
55	0x3f6b2072	0.9184638
56	0x3f8257f9	1.0183097
57	0x3f4bc010	0.7958994
58	0x3f66a2b3	0.9009201
59	0x3f8055ca	1.0026181
60	0x3f5ab6d6	0.85435236
61	0x3f5a6392	0.8530818
62	0x3f400ff5	0.7502435
63	0x3f67b094	0.9050381

StatefulPartitionedCall/sequential_7_1/batch_normalization_21_1/batchnorm/sub:0 f4 [128]
0	0x3c9012d9	0.017587112
1	0xbebc6e71	-0.3680301
2	0xbeaece14	-0.341416
3	0xbec5b655	-0.3861567
4	0xbeb2a327	-0.348901
5	0xbe0c3b4c	-0.13694495
6	0xbed64cfa	-0.41855603
7	0xbeaba294	-0.33522475
8	0xbebd3be1	-0.36959746
9	0xbd5db551	-0.054127995
10	0xbe5d6e60	-0.21624136
11	0xbe14e776	-0.1454142
12	0xbe67e490	-0.22645783
13	0xbe73fd51	-0.23827101
14	0xbedc32a7	-0.43007395
15	0xbdfbea28	-0.12300521
16	0xbe795b93	-0.24351339
17	0xbe6997f0	-0.22811866
18	0xbf008754	-0.50206494
19	0xbd3ac30e	-0.045596175
20	0xbe88ac59	-0.2669399
21	0xbea3f279	-0.3202093
22	0xbf3c0c63	-0.734564
23	0xbd8ce894	-0.06880298
24	0xbf0f1e61	-0.5590573
25	0xbeb44970	-0.35212278
26	0xbdc3abe7	-0.09554272
27	0xbeb12154	-0.3459574
28	0xbea9aa8b	-0.33137926
29	0xbed023ff	-0.40652463
30	0xbec0b6d3	-0.37639484
31	0xbe4ec48c	-0.20192164
32	0xbee1024e	-0.4394707
33	0xbdd6ea0e	-0.10493861
34	0xbd0dc49e	-0.034611337
35	0xbe97e67c	-0.29668033
36	0xbe99ae65	-0.30015865
37	0xbe5807d9	-0.21096744
38	0xbe356443	-0.17714028
39	0xbd419dca	-0.04726962
40	0xbe38ec50	-0.18058896
41	0xbec4ab84	-0.38412106
42	0xbeb0e7fd	-0.34551993
43	0xbed89350	-0.4229989
44	0xbe7260a3	-0.23669676
45	0xbe868940	-0.26276588
46	0xbe5fc0b9	-0.21850862
47	0xbe981e2c	-0.2971052
48	0xbe8afae7	-0.27144548
49	0xbdcef32e	-0.101049766
50	0xbe3086b1	-0.1723888
51	0xbea9f15c	-0.33191955
52	0xbdeef96f	-0.116686694
53	0xbe86f992	-0.26362282
54	0xbf0ddd19	-0.55415493
55	0xbe43352e	-0.19063255
56	0xbce4b9c7	-0.027920617
57	0xbd6f900e	-0.05848699
58	0xbf3615de	-0.71127117
59	0xbeb4afaa	-0.3529027
60	0xbe904b77	-0.28182575
61	0xbc727af8	-0.014799826
62	0xbec94a23	-0.39314374
63	0xbec9b8f4	-0.3939892
64	0xbd1857ae	-0.037192993
65	0xbed8eb3d	-0.42366973
66	0xbee5ffbb	-0.4492167
67	0xbee57578	-0.44816184
68	0xbef851c7	-0.4849989
69	0xbf092043	-0.5356485
70	0xbf12873d	-0.5723761
71	0xbdde90ac	-0.10867438
72	0xbec2bc01	-0.3803406
73	0xbeaf09d5	-0.3418719
74	0xbeffe670	-0.49980497
75	0xbe900fda	-0.28137094
76	0xbeb58236	-0.35450906
77	0xbe8facd0	-0.28061533
78	0xbeb7c8e4	-0.35895455
79	0xbef083d5	-0.4697558
80	0xbef3e35e	-0.47634405
81	0xbeb9425f	-0.3618345
82	0xbef48dc7	-0.47764418
83	0xbf041ec5	-0.5160945
84	0xbef5ccd0	-0.48007822
85	0xbe91d608	-0.28483605
86	0xbe89e9ff	-0.26936337
87	0xbf00e55a	-0.5034996
88	0xbe8b184c	-0.27166975
89	0xbebd90bc	-0.37024486
90	0xbd9cc234	-0.07654229
91	0xbe9db677	-0.30803272
92	0xbea56518	-0.3230369
93	0xbea1bc10	-0.31588793
94	0xbeba2ad3	-0.36360797
95	0xbe9c92a1	-0.3058062
96	0xbdb706cf	-0.089368455
97	0xbef97207	-0.48719808
98	0xbea0417a	-0.31299955
99	0xbb513376	-0.0031921542
100	0xbf02f669	-0.5115724
101	0xbefdbbcb	-0.49557337
102	0xbe5134c6	-0.20430288
103	0xbecfad7d	-0.4056205
104	0xbe7f2267	-0.24915467
105	0xbda6a460	-0.08136821
106	0xbe44ed5a	-0.19231167
107	0xbe948cbe	-0.29013628
108	0x3a8e0d9c	0.0010837796
109	0xbeb62efc	-0.3558272
110	0xbed9613a	-0.4245699
111	0xbd7bd35e	-0.061480872
112	0xbe378562	-0.17921975
113	0xbe7618f3	-0.24032955
114	0xbf116492	-0.56794083
115	0xbe3495fd	-0.17635341
116	0xbe5dece3	-0.21672396
117	0xbe2e0a1b	-0.16996042
118	0xbe2de9a7	-0.16983663
119	0xbe8dd926	-0.27704734
120	0xbd47b65e	-0.048757903
121	0xbe7c2e99	-0.2462715
122	0xbf01eb09	-0.5074926
123	0xbe285f79	-0.1644267
124	0xbddacd9a	-0.10683747
125	0xbe343c4e	-0.1760113
126	0xbed3d276	-0.41371506
127	0xbed322d3	-0.41237506

StatefulPartitionedCall/sequential_7_1/batch_normalization_21_1/batchnorm/mul:0 f4 [128]
0	0x40468dea	3.1024117
1	0x401b8e59	2.4305632
2	0x4029ae83	2.6512764
3	0x4007bb79	2.1208174
4	0x40195f9e	2.396461
5	0x402170a3	2.5224998
6	0x401cdb32	2.4508786
7	0x3ff9eaec	1.9524817
8	0x3fed7823	1.8552288
9	0x405105fd	3.2659905
10	0x40093396	2.1437736
11	0x40581693	3.3763778
12	0x40492094	3.1426134
13	0x401db1f0	2.4639854
14	0x402e9699	2.7279418
15	0x4045fec4	3.0936747
16	0x40526ea5	3.2880032
17	0x405a7b78	3.413786
18	0x4035fb77	2.8434732
19	0x404904ac	3.1409101
20	0x4032b62b	2.7923687
21	0x40225f3a	2.5370622
22	0x4038f15a	2.889731
23	0x40596ab5	3.3971379
24	0x400d68f1	2.20953
25	0x4029247e	2.6428523
26	0x4047fb15	3.1246998
27	0x4010808e	2.2578464
28	0x403bc79b	2.934058
29	0x401fd94f	2.4976385
30	0x40267952	2.6011548
31	0x40308b8e	2.7585177
32	0x40145116	2.317449
33	0x402fe49e	2.7483287
34	0x4050553c	3.2552023
35	0x3fd4f6e7	1.6637849
36	0x40484787	3.1293657
37	0x401dd27e	2.4659724
38	0x404337f5	3.0502903
39	0x404f3685	3.2377026
40	0x40073c28	2.1130466
41	0x401267ae	2.287578
42	0x4019851b	2.398749
43	0x40344439	2.816664
44	0x4022074f	2.531696
45	0x40284656	2.629293
46	0x3fffe5ac	1.9991965
47	0x4023786d	2.5542252
48	0x400c96ca	2.1967034
49	0x40233b46	2.5504928
50	0x403cd4f2	2.9504972
51	0x40082d64	2.1277704
52	0x403f0abe	2.9850307
53	0x40093203	2.1436775
54	0x402a53a1	2.6613543
55	0x404b014c	3.1719542
56	0x404ad898	3.1694698
57	0x4041a5e9	3.0257514
58	0x40356d22	2.834786
59	0x40278685	2.6175854
60	0x40253480	2.5813293
61	0x406a749f	3.663368
62	0x403f6924	2.9907923
63	0x400b169d	2.1732552
64	0x40555440	3.3332672
65	0x403f8215	2.9923146
66	0x40324a0f	2.7857702
67	0x4015c029	2.3398535
68	0x3ff0a375	1.8799883
69	0x401b2610	2.4241982
70	0x4023cab7	2.5592477
71	0x4047fb3b	3.124709
72	0x4029cd59	2.6531584
73	0x403906d7	2.8910425
74	0x4010593c	2.2554464
75	0x4058ce3c	3.3875875
76	0x401d388d	2.4565766
77	0x402347ac	2.5512495
78	0x40463b78	3.0973797
79	0x402c9cb9	2.6970656
80	0x403e8f6f	2.9775045
81	0x4035f5bb	2.8431232
82	0x400b70c9	2.1787589
83	0x4043d499	3.059851
84	0x402ce78e	2.701633
85	0x40057a9a	2.085608
86	0x3ffa0673	1.9533218
87	0x4018b3e6	2.3859801
88	0x40228384	2.539277
89	0x40466bbc	3.1003256
90	0x4031855f	2.7737653
91	0x400915ee	2.1419635
92	0x40273a01	2.6129153
93	0x40059fcc	2.0878782
94	0x4020ff24	2.5155725
95	0x403e3d7d	2.972503
96	0x402497bd	2.5717614
97	0x402b3b85	2.6755078
98	0x40438def	3.055538
99	0x4049dcbc	3.1540976
100	0x4016f532	2.3587155
101	0x3ff8d3fd	1.9439694
102	0x40649594	3.5716295
103	0x40254783	2.5824897
104	0x402295b9	2.5403883
105	0x403c2906	2.9400039
106	0x402f0920	2.734932
107	0x40125147	2.2862108
108	0x405607e6	3.344232
109	0x401454bd	2.317672
110	0x4036ad4f	2.854328
111	0x40635532	3.552075
112	0x4040d073	3.0127227
113	0x403ba4d3	2.931935
114	0x40476d1f	3.1160352
115	0x40526905	3.28766
116	0x401cadb8	2.448103
117	0x400fa215	2.2442677
118	0x402c75e7	2.6946962
119	0x401300a3	2.2969139
120	0x404d2cf7	3.2058694
121	0x403cdbc5	2.9509137
122	0x40250912	2.5786786
123	0x40478a34	3.1178102
124	0x401a5c07	2.411867
125	0x402df93d	2.7183373
126	0x403357b1	2.8022273
127	0x400c4e6a	2.192286
