Model/Models/final_model.onnx (onnx, 59448 bytes, 14 tensors)

StatefulPartitionedCall/sequential_42_1/dense_138_1/Cast/ReadVariableOp:0 f4 [32, 6]
000000 c2 9a bd be b4 72 1a 3d 49 25 c8 be 3a 24 85 be
       -0.37032133 0.037707046 -0.39090946 -0.260042
000010 21 ae bb be c1 a4 54 be 70 05 be be 58 77 81 be
       -0.36656287 -0.20765974 -0.37113523 -0.25286365
000020 9f 64 45 be 5c 88 d0 be 91 40 c4 3d 0c f1 cc be
       -0.19276665 -0.40729034 0.095826276 -0.40027654
000030 63 da 10 3f f8 10 99 3e 72 9f 3f 3e e7 02 8b 3e
       0.5658323 0.2989576 0.18713167 0.27150652
000040 ee ab be 3d 24 88 71 3e 43 03 81 be 9d cc 9f bd
       0.09310137 0.2358709 -0.251978 -0.07802699
000050 3a d2 98 bd 27 71 e0 be 06 28 df be 44 16 be be
       -0.074619725 -0.43836328 -0.43585223 -0.37126362
000060 14 73 9b 3e 03 47 67 3e 14 18 a0 3e 68 3c 91 3e
       0.30361235 0.22585683 0.3126837 0.283664
000070 78 6e f1 3d 42 02 f0 3e 71 f0 11 3f de bb ce 3e
       0.11788648 0.46876723 0.5700751 0.40377706
000080 34 b0 0b 3f 72 ad e8 3e c8 ee 9f bd f2 99 02 3f
       0.5456574 0.45444828 -0.07809216 0.5101615
000090 bc 63 22 bf 54 dc b3 bd 36 8b 05 be 22 60 8c be
       -0.6343343 -0.08782259 -0.13041386 -0.27417094
0000a0 ef c4 9e 3b 81 b1 a6 be 31 29 00 3f 9d be e2 3e
       0.0048452537 -0.325573 0.50062853 0.4428605
0000b0 02 33 10 3e d7 74 c8 3e 7c 2f 99 3e a4 86 3d 3e
       0.14081958 0.39151642 0.2991904 0.18508393
0000c0 29 01 0d 3b e8 84 27 be 8d db fc 3e 54 11 0f 3f
       0.0021515584 -0.16359293 0.49386254 0.55885816
0000d0 66 80 c1 3e c7 c5 95 3e 40 6e 13 3e f4 27 be 3e
       0.37793273 0.29252455 0.14397526 0.37139857
0000e0 25 4b a4 3e fa e0 61 3e f5 4e f6 3e ad 40 24 bd
       0.3208858 0.22058478 0.48107114 -0.040100742
0000f0 ca 57 0d bf 08 50 d9 3d 2c 2f cc be 96 b9 f0 be
       -0.5521208 0.10610968 -0.3987974 -0.4701659
000100 44 b3 c6 b9 13 4a 01 bf 35 e2 1e 3e 5a e5 81 3e
       -0.00037899066 -0.50503653 0.15515979 0.25370294
000110 9e 8c 68 3e db 47 ac 3e 7e d0 c2 3e f8 31 87 3d
       0.22709891 0.3364857 0.38049692 0.06601328
000120 92 d9 8d 3e f3 ee 99 3e 6f 5c 8c 3e ae 98 9e 3c
       0.27705055 0.30065116 0.2741427 0.019359913
000130 37 ea 46 3e 4d ea b9 3e 41 a9 8c 3d 3f 11 26 3e
       0.19425283 0.3631157 0.0686822 0.16217516
000140 25 bf cd 3e ad cd 27 3f bc 06 0e 3f 42 7a e1 3e
       0.40184894 0.6554821 0.55479026 0.44038588
000150 a1 b4 0e 3f ff 2d ed 3e 8d 17 0b 3e d8 ed d8 3e
       0.5574437 0.46324155 0.13583203 0.4236896
000160 77 33 64 bd f3 53 0e 3e 2c 2b d4 be 4e 57 41 be
       -0.055713143 0.13899212 -0.41439188 -0.1888096
000170 cf 98 f0 bd a3 65 8c be ce e9 f3 be a9 e8 49 be
       -0.11747896 -0.27421293 -0.47639316 -0.19717659
000180 ab 40 1c 3f 62 59 d3 3e be d7 a3 3e 86 bd d7 3e
       0.61036175 0.4127913 0.32000536 0.42136782
000190 47 0f 9e 3e d0 ed ad 3e 42 87 86 3c fc 2d 1d bf
       0.3087103 0.339705 0.016421918 -0.6139829
0001a0 fe 9f bc 3d 43 9f 0e bf 09 53 b0 bd 28 0b 11 bf
       0.092102036 -0.55711764 -0.08609588 -0.5665765
0001b0 81 be 51 3e ed 21 08 3f 3e 0a 06 3e 18 b5 fc 3e
       0.20482828 0.53176767 0.13089845 0.49356914
0001c0 4d dd 08 3f 37 ff 79 3e 88 77 aa 3e 07 3e 04 3f
       0.5346268 0.24413763 0.3329432 0.51657146
0001d0 44 e1 4c 3e ab cd e0 3e ca d0 59 bc 24 a3 9b bc
       0.20007807 0.43906912 -0.013294408 -0.01899869
0001e0 24 40 4e bd 09 b1 8e 3e a2 87 3c 3e 92 79 02 3f
       -0.050354138 0.27869442 0.18411115 0.5096675
0001f0 7d 62 86 3e 69 95 a3 3e cc 21 30 3e 9f 97 da bc
       0.26247016 0.31949928 0.17200392 -0.026683627
000200 e3 c4 10 3f 71 f3 02 3f 36 e5 65 3d e4 eb 77 3e
       0.56550425 0.5115271 0.056126796 0.24211079
000210 47 21 53 be 27 7f 15 bf fd 12 e8 be d2 cd 0e 3d
       -0.20618163 -0.58397144 -0.45326987 0.034864254
000220 21 3f a6 be 8e 0f 62 be 5b 71 d6 3e 26 25 2c 3e
       -0.3247004 -0.22076246 0.41883358 0.16811046
000230 4c 9f 17 3e d5 bd 21 3f 82 70 a9 3e bf 83 d6 bc
       0.1480686 0.63180286 0.3309365 -0.026185868
000240 55 06 17 3f 38 3e c6 3e 1e e4 34 3e 3d 84 a7 3e
       0.58994037 0.38719344 0.17665145 0.32718077
000250 8f 54 f2 bc 4c 8f b2 3e 9f 8e 8a be 7d 20 7c be
       -0.029581336 0.34874952 -0.27061936 -0.24621768
000260 c6 60 01 bf e3 8d a2 be b2 c8 a4 3d 40 cc 8e be
       -0.5053829 -0.31748876 0.08046092 -0.27890205
000270 81 6f bf 3e bc ab ea 3d 61 7b a7 3e 97 54 95 3e
       0.37389758 0.11458537 0.32711318 0.291661
000280 b3 a2 fe 3e 3b e0 02 be b6 21 d7 bd 8d c1 01 be
       0.49733505 -0.1278085 -0.10504477 -0.1267149
000290 cd 54 f7 be b1 e3 57 be e1 cf c8 be 0a d2 38 bd
       -0.48306885 -0.21082951 -0.392211 -0.045122184
0002a0 96 e5 85 3d f0 06 a1 be ef 56 b9 bd 20 01 6e bc
       0.06537931 -0.31450605 -0.090497844 -0.014526635
0002b0 7c 4e 05 bf 45 8e 35 be 6d 9d 05 3f 10 e6 b6 3e
       -0.5207288 -0.17730053 0.5219334 0.357224
0002c0 14 26 92 3e 99 31 cd 3d c2 31 d6 3e 27 32 18 3e
       0.28544676 0.100192256 0.41834837 0.14862882
0002d0 bb a5 9e be 51 e0 a4 be 29 08 5c bd 53 14 84 be
       -0.30985817 -0.3220239 -0.05371872 -0.25796756
0002e0 01 80 89 be 07 61 dd be 1b 8c b3 3e 9c c7 0c 3f
       -0.26855472 -0.43238088 0.3506783 0.5499208
0002f0 43 05 bb bd 6d c8 75 bd 5b 1e 09 3f ac 3b b8 3e
       -0.09131863 -0.060005594 0.53561944 0.35983026

StatefulPartitionedCall/sequential_42_1/dense_138_1/Add/ReadVariableOp:0 f4 [6]
000000 9a fa 6e 3e c0 82 5d 3e 8f f2 42 3e b2 ef 72 3e
       0.23337784 0.21631908 0.19037841 0.23724249
000010 27 b0 75 3e fe b9 4c 3e
       0.23992978 0.19992825

StatefulPartitionedCall/sequential_42_1/dense_137_1/Cast/ReadVariableOp:0 f4 [64, 32]
000000 2e 4d 2c 3e 08 ec a1 bd ec df 1e be ce be 06 3e
       0.16826317 -0.079063475 -0.15515107 0.13158724
000010 3f aa e1 bd 8c a8 61 bd 46 62 d9 3c 83 06 66 3e
       -0.110188 -0.05509238 0.026536118 0.22463422
000020 51 2c 61 3d 86 9a 38 be 48 92 e2 3d bf a9 9e bd
       0.054973904 -0.18027696 0.11063057 -0.0774722
000030 e4 dd c6 bd 37 05 22 3e 68 73 fd 3b a0 42 73 bd
       -0.09710291 0.15822302 0.0077347048 -0.05938971
000040 12 08 e6 3c b2 5b a8 bc e5 86 cc 3d 82 a8 82 bd
       0.02808002 -0.020551536 0.099866666 -0.063797966
000050 0a 56 0e 3e 87 b1 7e 3d 36 10 93 bd 39 9c a0 3d
       0.13900009 0.062181022 -0.07180826 0.07842297
000060 09 52 65 3c 74 1f 0c 3e 8e bc d7 bd 08 3f 42 be
       0.0139966095 0.13683873 -0.10534011 -0.18969357
000070 e5 9c 03 3e 0b 79 29 3e 56 5a a2 bd fc 31 bf 3d
       0.1285282 0.1655008 -0.079273865 0.09335706
000080 59 c7 c2 3d 1d cf 89 bb ae d7 1f be 14 27 4a 3e
       0.09510679 -0.004205598 -0.15609619 0.1974147
000090 e3 10 3d bc 63 ae b0 3d 9f ba f4 bd 1e e4 c4 3d
       -0.011539671 0.086270116 -0.11949658 0.096138224
0000a0 e8 7d 24 3e a1 72 1d 3e 74 fc 21 3d 9c 8d 3f be
       0.16063654 0.15375759 0.0395474 -0.18706363
0000b0 da 53 49 3e c4 9a d7 bd fd 80 b2 bd 49 97 d2 bd
       0.19660893 -0.10527566 -0.08716009 -0.102827616
0000c0 46 9e 1a be 4e f1 08 3d 6f bf 1e 3e f3 a0 38 3e
       -0.15099439 0.03343325 0.15502714 0.18030147
0000d0 59 28 bf bd 99 3e b3 bd d3 a3 af 3d 21 7d 28 be
       -0.093338676 -0.08752174 0.08576169 -0.16453983
0000e0 66 df ae bd 33 9e 56 3b 66 31 2e be c3 69 33 be
       -0.085387036 0.0032748103 -0.17011032 -0.17520814
0000f0 8e 7e 03 bd 43 61 2a 3e 20 bb 60 bd 93 7c 54 bd
       -0.032103114 0.16638665 -0.054865956 -0.051876616
000100 c4 73 43 3e 6d bd 4d 3e a3 61 03 be c0 b0 d8 bb
       0.1908713 0.20091791 -0.12830214 -0.006612867
000110 f7 7f 82 bd 98 bd fa 3d 5a 87 26 be 91 76 74 bc
       -0.063720636 0.122431934 -0.1626257 -0.014920847
000120 fe 57 89 3d 56 87 d2 bd 61 b6 c6 3d d4 db 4b bd
       0.06706236 -0.102797195 0.09702755 -0.04977019
000130 71 0f 9f 3c df d9 69 3e 47 73 0b 3c 62 36 92 3d
       0.019416543 0.22837017 0.008511371 0.07139279
000140 8a 67 99 bd 14 c9 cc bd 4f cb 7f be 03 a9 d3 3d
       -0.07490452 -0.0999929 -0.249799 0.10334971
000150 cf d9 5b 3e 01 05 5e bc 96 04 99 bc 25 54 12 3c
       0.21469806 -0.013550998 -0.018678945 0.008931194
000160 12 8e 30 3d fa 5f 3f be 81 f0 5f 3e e6 78 2e 3e
       0.04310424 -0.18688956 0.21869089 0.17038307
000170 33 e8 f5 3d 9e 62 7f 3d 59 9a 39 bd a2 1e 2f 3e
       0.12007179 0.062349908 -0.045313213 0.17101529
000180 29 01 0a 3e f1 f5 21 3e f1 ff 59 be aa 61 82 3c
       0.13477005 0.15816475 -0.2128904 0.01591571
000190 36 44 8d bd a7 65 1f bd 6a a4 82 3e 96 75 2b be
       -0.06897776 -0.038915303 0.25516063 -0.16744074
0001a0 3b 88 f4 bd ae 0f 01 3e a7 32 31 be 37 6a 0f 3e
       -0.119400464 0.12603638 -0.17304479 0.14005361
0001b0 00 65 1c be 29 cc e0 3d 65 a9 22 be d5 7a ee bd
       -0.15272903 0.109764405 -0.15884931 -0.11644522
0001c0 74 4a 28 be 53 8b 3d 3d 06 bc 75 be 4f c8 36 3e
       -0.16434652 0.046275448 -0.23997506 0.17849849
0001d0 3b 84 2c 3e 5c bd 21 3d 99 71 d4 bd 01 2c 3f be
       0.16847317 0.039487228 -0.103732295 -0.1866913
0001e0 94 b0 a0 3d 46 18 a4 bd 03 b6 5c 3e 31 fa 84 3c
       0.078461796 -0.08012442 0.21553807 0.016232582
0001f0 af bf 8b bb 86 9c f4 3d 25 45 6e 3c cc ae 0f bd
       -0.004264794 0.11943917 0.0145428525 -0.03507881
000200 e6 09 44 be d8 10 a4 3c ed b0 14 be 1f 0b 5c bc
       -0.19144401 0.020027563 -0.14520617 -0.013430386
000210 7e 25 39 be ba 9c de bd bc 3d b4 bd aa 86 c6 3c
       -0.18080708 -0.10869737 -0.088008374 0.024234135
000220 f7 31 07 be 55 62 bf 3d 71 ae 06 be cc 91 27 3e
       -0.13202654 0.09344927 -0.13152482 0.16364211
000230 12 e6 04 be a7 47 71 3e 94 ef 84 bd c9 b4 72 3e
       -0.1297839 0.2356249 -0.064910084 0.23701777
000240 eb 3a 04 3e 36 ac 36 3e 16 9c 37 3e 22 e0 8f 3c
       0.129131 0.17839131 0.17930636 0.01756293
000250 e9 d6 a6 bd fe 95 45 3e f0 ad 44 3d 47 94 23 bd
       -0.081464596 0.19295499 0.048017442 -0.03993633
000260 9d 24 17 be 63 5e 33 3e fc 9f 8c bd 84 b0 3d bb
       -0.1476006 0.17516474 -0.06866452 -0.0028944323
000270 70 b7 12 be b8 45 39 3d ff 2f 10 3e 54 61 fc bc
       -0.14327788 0.045232505 0.14080809 -0.030808128
000280 b9 01 6c 3e cc f2 02 be 0c 1a 39 3e 7f ea 6d bd
       0.23047532 -0.12787932 0.18076342 -0.05808496
000290 c6 d7 ec 3d 59 77 d6 bd 03 b4 85 bb dd 32 16 3d
       0.11564593 -0.104719825 -0.004080297 0.0366696
0002a0 66 00 92 bd 90 92 0d be 46 8b 46 3d 93 95 47 3e
       -0.07128982 -0.1382544 0.048472665 0.19490652
0002b0 f1 bd ca bd 64 ba 94 3d 27 21 72 bb f4 97 d9 bc
       -0.0989951 0.07262114 -0.003694603 -0.026561715
0002c0 d3 a4 09 be 25 bf 48 3e 5c bb 26 be e8 d1 fb bc
       -0.13441782 0.19604166 -0.1628241 -0.03073974
0002d0 a7 aa 5a be 34 3a a6 3d a6 bf 27 be d8 13 85 3e
       -0.21354161 0.0811657 -0.16381702 0.25991702
0002e0 4f 28 2b be 35 73 45 be fa 24 ea bd 07 8e e8 bc
       -0.16714595 -0.19282229 -0.11432834 -0.028388036
0002f0 71 3f cc 3c f8 be 58 be 49 03 cb 3c d9 75 d4 3d
       0.024932595 -0.21166599 0.02478184 0.1037404
000300 7d 3e 26 bc 4e 1f 39 3e 45 42 01 bc 5e 68 e6 3d
       -0.010146734 0.18078348 -0.007889335 0.11250375
000310 93 2f 8d bc 3f 7a 5d 3e ce d7 5b 3d 76 72 25 be
       -0.0172346 0.21628664 0.053672604 -0.16156945
000320 7f ce 0a 3e d9 1f b7 bd 63 ed 04 3e 98 4c 8b 3d
       0.13555335 -0.08941621 0.12981181 0.068017185
000330 d8 c6 f5 bc c8 5b 4d bd ab da 46 bd 87 2c 15 be
       -0.030002043 -0.050136358 -0.04854838 -0.14567767
000340 29 37 ec bd ef 12 f9 bd f9 dd 7b bd 02 4a 18 bc
       -0.115339585 -0.121618144 -0.061490986 -0.009294989
000350 fd 17 3b 3e 72 ce 26 bd f8 9e 1a 3c ea 87 b7 3d
       0.1827087 -0.040724225 0.009437315 0.089614704
000360 37 fa 28 3d 21 df f2 3d 52 db 3e 3d 6f e9 28 be
       0.04125425 0.11858965 0.04659588 -0.16495298
000370 25 c9 44 bd 28 b3 fe bc eb c7 f8 bd b2 1c de 3d
       -0.04804339 -0.031091288 -0.12147506 0.10845317
000380 c7 c2 7c bd dc 81 a5 bd 73 c6 01 bc 80 b7 c3 bc
       -0.06170919 -0.08081409 -0.007920849 -0.02389121
000390 c2 20 95 be 1a e0 08 3c 09 0f 83 3d db 75 53 3d
       -0.29126555 0.008354211 0.06399352 0.051626068
0003a0 8a fc 2a 3e 0b 0b 02 3e 65 b5 79 be d4 09 05 be
       0.16697899 0.12699525 -0.24385603 -0.1299203
0003b0 c3 00 33 bd de b6 31 3e 3a e5 b8 3d 13 46 ef 3c
       -0.0437019 0.17354915 0.090280965 0.029208219
0003c0 f4 69 ba 3d b4 0c 4d 3e ce 7d 16 be 30 f5 d0 3c
       0.0910224 0.20024377 -0.14696428 0.02550754
0003d0 7b 37 19 3d d5 da 2e be ad 6a 9f bd a2 34 c2 3d
       0.037406426 -0.17075665 -0.07784019 0.09482695
0003e0 4c d0 91 bd ae 24 46 3d 0e 22 9e 3d 2f 69 36 3e
       -0.071198076 0.048374824 0.07721339 0.17813562
0003f0 eb 9d 26 be 45 58 3f be 0c 82 10 bd 23 16 5a 3d
       -0.16271178 -0.18686016 -0.035280272 0.053243767

StatefulPartitionedCall/sequential_42_1/dense_137_1/Add/ReadVariableOp:0 f4 [32]
000000 ca 94 ba bc 93 5c a6 bc d1 4d 45 3d 7f a0 3e bd
       -0.022776026 -0.020307815 0.048169915 -0.04653978
000010 94 59 87 3d 7a a7 08 3e 78 96 aa 3d 0b 30 1f 3e
       0.066088825 0.13345137 0.08329481 0.1554567
000020 99 a3 c8 3c 28 6a cb 3d de 30 be 3d f8 fb ee 3b
       0.024492072 0.09932357 0.092866644 0.0072932206
000030 f7 be 0c 3e c0 df 6f 3d 26 84 c1 3d 51 72 93 3d
       0.13744722 0.058562994 0.094490334 0.071995385
000040 39 ca 5c 3d 37 b5 b0 3d 3f ca f8 3d a2 19 f6 3d
       0.053903792 0.08628314 0.121479504 0.12016608
000050 9e e8 ac 3d ab 1a e0 3d 40 ea 84 bc 29 2f e7 3d
       0.08442806 0.109425865 -0.01622498 0.11288292
000060 60 4e 9f 3d ab 7a 53 bd 9b 52 7b 3d 74 16 c3 3d
       0.07778621 -0.051630657 0.061358076 0.09525767
000070 66 02 27 3d 53 1f 33 3c 1b 28 c8 bd 50 dc 03 3e
       0.04077377 0.010932761 -0.097732745 0.12877011

StatefulPartitionedCall/sequential_42_1/dense_136_1/Cast/ReadVariableOp:0 f4 [128, 64]
000000 f5 8b ac 3c 62 99 e5 bd 68 ca b0 3d 33 c1 a9 3d
       0.02106283 -0.11210896 0.08632356 0.08288803
000010 7f 80 8c 3d 38 c3 8b bc 96 25 15 be 41 03 0d be
       0.06860446 -0.017060861 -0.14565119 -0.13770773
000020 5b 59 68 bd cd 5e 93 bd 2e e9 85 3d 40 c6 7b 3c
       -0.05672584 -0.07195816 0.06538616 0.015367091
000030 5a 2d 77 3c 88 fd f5 bb 41 56 51 3e 20 f3 d7 bd
       0.015086496 -0.00750703 0.2044306 -0.10544419
000040 cc 03 d6 3c c2 b7 9a bd 9e 44 b5 3d d9 28 da 3d
       0.026124857 -0.0755458 0.08850978 0.10652322
000050 de 13 e1 3d 3f 1d b3 bd 71 ce cc 3d 22 3e 01 be
       0.109901175 -0.087458126 0.10000313 -0.12621358
000060 59 53 48 bd 0d 14 4b 3d d0 e1 ba bd 78 b0 b9 bd
       -0.04890761 0.04957967 -0.091251016 -0.09066862
000070 b0 d2 97 bc 73 87 ae bd 40 b5 7d 3d f1 08 45 3d
       -0.01853308 -0.08521929 0.06194043 0.04810423
000080 dc 13 46 3b bd 19 c9 3d 23 fa 0e 3d a5 b4 ad bd
       0.003022424 0.09819362 0.034906518 -0.08481721
000090 20 60 f5 3d 5a 35 29 bd 30 a1 10 3e 7c 72 21 be
       0.11981225 -0.041310646 0.14123988 -0.15766329
0000a0 8e e0 86 bd 0c 3c 54 bd c0 49 33 be 93 83 71 bb
       -0.06585799 -0.051815078 -0.17508602 -0.0036852106
0000b0 7f 12 1c be a1 11 56 3d 2d 7a 82 bd a6 f7 0a be
       -0.1524143 0.052262906 -0.063709594 -0.13571033
0000c0 74 14 a6 bd be 19 b0 3c 75 8f 85 bd 59 c7 32 bd
       -0.0810937 0.02149665 -0.06521503 -0.043647144
0000d0 d4 ef 05 3e 22 cd 11 be f7 e3 ef bd ce b3 d6 bb
       0.13079768 -0.14238408 -0.11713403 -0.006552196
0000e0 bf 89 e5 bd 2c b8 a3 3d ad 9b 2d 3d ee a7 6f 3d
       -0.112079136 0.07994112 0.042384792 0.05850976
0000f0 ff 6c 94 3c ae d1 c9 3d be f5 af 3d 70 39 4d bd
       0.01811838 0.09854446 0.085917935 -0.050103605
000100 b2 61 c2 3c ae e4 06 be 65 d7 02 bd dd f1 90 3d
       0.023728225 -0.13173172 -0.031943697 0.07077382
000110 49 91 0a be 24 e4 16 be 54 a2 ae bc b6 b9 c2 bd
       -0.13531984 -0.14735466 -0.021317638 -0.09508078
000120 fd b3 56 3d e4 3e a2 bd 8d 6c 06 be 73 1b 99 3d
       0.052417744 -0.07922152 -0.13127346 0.07475939
000130 a3 b4 8f bd e9 2a 9f 3d 53 f4 be 3d d0 68 b5 3d
       -0.070168756 0.07771856 0.09323945 0.08857882
000140 96 08 10 3e ee a0 1a be 3f 80 a3 3d 54 2c 29 3e
       0.14065775 -0.15100452 0.079834454 0.16520816
000150 12 73 b6 bd 2c b4 df bd 4c ad 31 3e ae 66 5b 3c
       -0.08908667 -0.10923037 0.17351264 0.01339118
000160 20 88 d9 bd 8f 17 94 bd 27 d7 6a bd 86 bb f6 3d
       -0.10621667 -0.07231056 -0.05733409 0.12047486
000170 00 3c 6c bd eb 65 17 3e 05 b4 a3 bd 35 2f 2b bc
       -0.057674408 0.14784972 -0.079933204 -0.010448267
000180 d0 bc d9 3d 2c b8 13 bc 76 d2 9a 3b d4 50 37 3e
       0.10631716 -0.009016078 0.004724796 0.17901927
000190 35 7c a5 bd f6 36 be bd 64 a4 e8 3d 24 51 d6 bd
       -0.08080331 -0.09287827 0.1135948 -0.10464695
0001a0 b6 77 c1 3d d1 d3 25 3d ab 95 9e bd 67 d3 99 3d
       0.09446661 0.040485207 -0.07743391 0.07511025
0001b0 90 72 be bd 1e 0e e1 3d 63 0e 12 be e6 ed a6 bd
       -0.09299195 0.10989021 -0.142633 -0.08150844
0001c0 5a 6a eb bc 3d a2 0d 3e a0 54 c0 bd 95 33 53 bd
       -0.028737236 0.1383142 -0.09391141 -0.051562864
0001d0 21 1a c2 3c cd a6 ce bd 5d ad 9a 3d e8 60 62 3d
       0.0236941 -0.100904085 0.07552598 0.0552682
0001e0 80 bf 26 bd 11 fe 22 3d df 1a 17 be 6b 91 43 3d
       -0.040709972 0.039793078 -0.14756344 0.047746103
0001f0 fe db e4 bd 7e 3e b6 3d 20 cf de 3d b4 29 8d bd
       -0.11174773 0.08898638 0.1087935 -0.0689272
000200 5f 17 0f 3e fc ab d2 bd 93 c6 1a 3e 14 2c 09 be
       0.13973759 -0.1028671 0.15114813 -0.1339572
000210 38 63 28 be dc 5c 96 bd 5d ca 41 bd 27 c9 25 3e
       -0.16444099 -0.0734193 -0.04731213 0.16190015
000220 60 01 71 3c 0f dd 78 3a ac cf 08 be 8d a3 5e bd
       0.0147098005 0.00094933895 -0.1336047 -0.054355193
000230 03 f3 df 3d 1e d3 df bc 3a 5e 09 bd c0 98 2c 3e
       0.10935023 -0.027322348 -0.033537127 0.16855145
000240 80 df 1a be d2 85 90 bd fa ac a3 b9 c4 67 03 3e
       -0.15124321 -0.07056774 -0.0003121866 0.12832552
000250 9e f3 aa bd d7 23 e4 bd ff 67 4f bd 7e cf 0c 3d
       -0.083472475 -0.111396484 -0.050636288 0.034377567
000260 e8 c4 c6 bb f3 01 40 3d 6a 15 02 be 30 32 ac 3d
       -0.0060659535 0.04687686 -0.12703481 0.0840801
000270 45 36 99 3d a4 c9 d6 bc 17 9e fd bc 58 b4 a6 bd
       0.07481054 -0.026219197 -0.030959172 -0.081398666
000280 1b ad 2a be 74 8e be bd da 70 66 bd 5e a6 21 be
       -0.16667597 -0.093045145 -0.056259967 -0.1578612
000290 7e 55 1a bd 70 c2 e2 3d 0e 0b 39 bd eb 57 c6 3d
       -0.037679188 0.11072242 -0.04517656 0.09684738
0002a0 c3 ff 8d 3a a7 92 53 3d 3b 02 08 3d a7 02 dc 3b
       0.0010833669 0.05165353 0.033205252 0.0067141834
0002b0 9f a7 aa bb 61 a5 31 bd d0 8f 3f bc 21 05 ed bd
       -0.0052079703 -0.04337061 -0.011692002 -0.11573244
0002c0 23 e1 8d bd 6e 8f ea 3d 42 27 c2 3d 2c a0 45 3d
       -0.06927707 0.11453138 0.09480144 0.048248455
0002d0 f0 df bc 3d 5d e1 d9 bd f6 1d 03 3e 48 6a ce bc
       0.092224 -0.10638688 0.12804398 -0.025197163
0002e0 da b4 d3 3b c2 cb 6e 3d 6a 60 84 bd 9c 00 e7 3d
       0.006460768 0.058299787 -0.06463702 0.11279413
0002f0 4d ac f5 3d e6 14 23 bd dd 90 dd 3b dc 2f 43 3d
       0.119957544 -0.039814852 0.006761654 0.047653064
000300 8b 81 e5 bd ae da 54 3d 5f 01 3d bd 86 0f 85 3d
       -0.11206349 0.05196636 -0.046143886 0.064971015
000310 77 5c ae 3d 90 54 ba bd 83 f1 14 3e 3e 50 19 bd
       0.0851373 -0.0909816 0.14545254 -0.03743004
000320 ee eb f9 bd e7 a4 ab bd 4a 7c f6 3c b0 1b 3d bc
       -0.12203203 -0.08381062 0.030088563 -0.011542246
000330 e4 4e 96 3d 4d bf ae bd 14 53 39 be 28 41 87 bd
       0.07339266 -0.085325815 -0.18098098 -0.066042244
000340 ce 4f 17 3d 29 28 36 3e 45 c1 fb 3d 63 9d 1d be
       0.036941342 0.17788757 0.122927226 -0.1539207
000350 e7 da 04 be 8d 6b c4 3d 6a 12 b6 3c 04 71 14 3e
       -0.1297413 0.09590826 0.022225577 0.14496237
000360 3b 80 4d 3e 49 fa 27 bd 9d c7 a5 bd cd 41 a9 bd
       0.20068447 -0.041010175 -0.08094714 -0.08264504
000370 b4 b1 dd bd 5c 89 93 bd 0e 64 87 3d 13 27 a6 bd
       -0.1082491 -0.072039336 0.06610881 -0.081129216
000380 85 1c df 3d 73 86 1d bb 72 94 07 3d 5a bf 52 bc
       0.108941115 -0.0024036437 0.033100553 -0.012863005
000390 13 d8 08 3c e8 f8 16 be 4d 6c 5f 3d aa 99 4b bc
       0.008352297 -0.14743388 0.054546643 -0.012426773
0003a0 c5 e2 8d bc e6 54 eb bc 50 e8 11 3e 17 2e b4 3d
       -0.017320046 -0.028727006 0.14248776 0.087978534
0003b0 e5 9e 00 be d1 f2 8e bd 79 b3 07 3e 56 15 b4 3d
       -0.12560613 -0.06979907 0.13252057 0.08793132
0003c0 df d0 04 3e bc 10 1b bd 22 e1 fa bc bd 7c 8e bd
       0.12970303 -0.037857756 -0.03062493 -0.06957386
0003d0 12 be a2 3c cb a1 0b bc 46 ea f3 bc a1 1b 0c bd
       0.019866023 -0.008522461 -0.029774796 -0.034206036
0003e0 47 1d 26 3d 41 46 cd 3d e1 8e d6 bd 4c 40 c1 bd
       0.040555265 0.100231655 -0.10476471 -0.09436092
0003f0 2b f5 4e 3d 91 01 3d bd e5 58 b1 3d 09 10 6c 3d
       0.05052678 -0.046144072 0.086595334 0.05763248

StatefulPartitionedCall/sequential_42_1/dense_136_1/Add/ReadVariableOp:0 f4 [64]
000000 c8 4c 0f 3d e8 2c 29 bd d4 a4 68 3d cc 4d d8 3c
       0.034985334 -0.04130259 0.056797817 0.026404284
000010 a8 4b bd bc ae 15 00 bd c3 7c 32 bc 2e d6 b7 3c
       -0.023107365 -0.031270675 -0.010894003 0.022440996
000020 cb 50 dd 3b bb c7 c5 bb a1 2c 25 3c 7a d2 68 b9
       0.006754016 -0.0060357726 0.010081441 -0.00022203653
000030 ad 0d 4a 3d 10 e7 71 3d ac 6c 33 3d fc 0c 80 3b
       0.04932945 0.05905825 0.04380481 0.003907798
000040 7f 0d 52 3c 21 19 d0 3b 0f e4 2f bd 71 6f f9 3c
       0.0128206005 0.006350652 -0.042942103 0.030448647
000050 9b fb 3a bc a0 e5 8b bb be 44 e2 3a 07 0e e9 ba
       -0.0114125265 -0.004269317 0.0017262918 -0.001778067
000060 2e 3b 4a bc b3 ef 85 bd a2 3d 15 bd c8 c8 d3 38
       -0.012343211 -0.065398596 -0.03643573 0.000100986625
000070 76 80 18 3c 39 16 a9 3d fd ed 88 bc d8 f2 02 3d
       0.009307971 0.08256192 -0.016715044 0.031969875
000080 31 87 cb bc f1 e3 52 bd 62 28 91 3d 56 b4 88 3d
       -0.024844738 -0.051486913 0.070877805 0.06675021
000090 21 5c e9 bc 39 39 4f 3d 94 ca 91 3d 97 5b e3 3c
       -0.028486313 0.05059168 0.07118717 0.027753634
0000a0 bf a1 08 bd 9c 8e 33 bd 23 1c a0 bc ec db ad 3c
       -0.033357378 -0.043837175 -0.019544667 0.021223031
0000b0 a4 fa 29 3d 75 39 82 3d ba 4c 91 3c c3 94 94 3c
       0.041498795 0.06358615 0.017736781 0.018137341
0000c0 a7 fc b2 bb 9d ef 30 3d 20 00 81 3c c1 e5 f1 3c
       -0.0054622474 0.043197263 0.01574713 0.0295285
0000d0 2c 1e 92 3c 4f 26 c3 3a d3 a6 3b 3d 5c aa 2f 3c
       0.017836653 0.0014888736 0.045813393 0.010721769
0000e0 5f b3 2c 3c f5 df 51 bd 6a 06 ac 3c 1d 23 a0 3d
       0.010540812 -0.051238973 0.020999152 0.07819197
0000f0 cf e9 2c 3d 8b eb 13 bd d6 56 45 bd 97 45 c0 3c
       0.042215165 -0.036113303 -0.048178516 0.023470683

StatefulPartitionedCall/sequential_42_1/dense_135_1/Cast/ReadVariableOp:0 f4 [17, 128]
000000 2d 4c 0e 3e f0 b2 4f bd 60 d9 32 3e 51 fe 10 3d
       0.13896246 -0.050707757 0.17465734 0.035398785
000010 6b 5c 55 be 19 e2 0a 3e 60 9d 00 be bf 74 d9 bd
       -0.20836036 0.13562812 -0.12560034 -0.10617971
000020 b8 a3 75 bd c5 07 85 3d 1d 63 09 be af 39 35 3d
       -0.059970587 0.064956225 -0.13416715 0.044244464
000030 0a 5b 7a 3c 85 a2 25 be 4e c5 98 bc 88 b1 25 bd
       0.0152804945 -0.16175278 -0.01864877 -0.04045251
000040 3f 48 2c 3e 6f 61 1e bc ef 56 d7 3d 97 7b d9 bd
       0.16824435 -0.009666785 0.10514628 -0.10619276
000050 ee b0 26 3d 23 de b0 bb c2 a7 a1 bc c5 65 01 3e
       0.040696077 -0.0053975745 -0.019733313 0.12636478
000060 a5 64 25 be e4 4e cd 3d 15 0d f9 bd 44 7d 38 bc
       -0.16151674 0.10024813 -0.12160698 -0.011260334
000070 ca a4 1c be 49 7c a9 bd 58 e4 b2 3d 3b fe a2 3d
       -0.15297237 -0.08275659 0.08734959 0.07958647
000080 e8 c5 29 be d3 a4 79 3c f7 55 44 bc 68 a8 f6 3d
       -0.16579401 0.015237051 -0.011983386 0.1204384
000090 89 a5 5d 3d 4e 7b 15 be 84 83 16 3e 6d dd 04 be
       0.054112945 -0.14597818 0.14698607 -0.12975092
0000a0 03 1e df 3d 86 5d bc bd 16 fa f6 bb 07 be 11 be
       0.10894396 -0.09197526 -0.007537137 -0.14232646
0000b0 11 87 56 bd 3b 4d 80 3d 1f 7d 94 bd 3b a6 1c be
       -0.052374903 0.062647305 -0.072504275 -0.15297787
0000c0 35 13 2e 3e 8f 6c 8d bd 1d de a1 3b 26 9e b2 bd
       0.16999514 -0.069054715 0.004939808 -0.08721571
0000d0 c3 a7 06 be 10 f6 f7 bd 99 75 e5 3d 81 7b e9 3d
       -0.13149934 -0.121074796 0.112040706 0.114005096
0000e0 34 90 08 be 9b b4 a9 bc 4a a6 13 3e fd f3 91 bd
       -0.13336259 -0.020716002 0.14418903 -0.07126615
0000f0 bf 33 29 3e 3c 81 fb bc c3 2f 18 be c4 d6 9c bd
       0.16523646 -0.030701272 -0.1486197 -0.07658151
000100 86 61 26 bd 61 9d e4 bd e8 e9 e9 3d 38 03 6d bd
       -0.04062035 -0.1116283 0.11421567 -0.057864398
000110 64 82 46 3c 3b 15 5b bd f1 ff 3d 3d ea ca 5f bc
       0.0121160485 -0.053487044 0.046386663 -0.013659218
000120 75 e5 1c 3e 8a c8 ba 3c 53 d1 23 be 58 d1 11 be
       0.15321906 0.022800703 -0.1599782 -0.14240015
000130 ac 10 fe bd d1 2d 1e 3e 67 5b 8f 3d 55 ed c8 3d
       -0.12405524 0.15447165 0.069998555 0.098108925
000140 ab 50 58 3c aa 83 0a 3e 29 29 c6 bd 9a 5c 25 3e
       0.0132028265 0.13526788 -0.096758194 0.16148606
000150 a2 1a 70 bd 61 96 08 3e 9d 09 8a 3d bf a8 88 bd
       -0.05861915 0.13338615 0.06740115 -0.06672811
000160 27 79 bb 3c 31 13 70 bd 8e dd 89 bd fd 1a 19 3e
       0.022884918 -0.058612052 -0.06731711 0.14951701
000170 b7 72 a7 3d 9f e7 2e 3d aa ef fd bb e1 c8 37 3c
       0.08176177 0.04270136 -0.0077495174 0.011217327
000180 10 84 f1 bd 7e 6f 1c bd bd cd a3 bd 45 61 f3 bc
       -0.11792767 -0.038192265 -0.07998226 -0.029709468
000190 3d 53 59 3e 40 07 ab 3d a8 a8 1d 3e 83 1d e8 3d
       0.21223159 0.08350992 0.15396369 0.11333754
0001a0 a6 6c 4c bc c6 e0 35 3e 42 00 f4 bd 54 30 ee 3d
       -0.012477076 0.17761526 -0.11914112 0.116303116
0001b0 26 a9 a8 3d 83 08 2f be c9 7e fc 3b 71 55 94 bd
       0.082353875 -0.1709309 0.0077055437 -0.07242859
0001c0 b0 f7 be 3d 4b 53 01 be c8 10 35 bd 8f 00 fa 3d
       0.093245864 -0.1262943 -0.044205457 0.12207138
0001d0 33 94 e3 bd 81 69 18 bc 50 cd fd 3d 81 ae cb bc
       -0.11112251 -0.009302498 0.12392676 -0.024863483
0001e0 b6 86 c1 3d e8 51 37 3d 71 0e e2 3d 92 20 d6 bd
       0.09449522 0.044755846 0.11037911 -0.10455431
0001f0 2a 57 2f 3e ad e7 ac bc 34 21 c8 3d 9f c9 2d 3e
       0.17123094 -0.021106565 0.09771958 0.16971444
000200 88 3f a0 3d d0 5a 20 3e ba 63 b3 3d a3 3a 83 be
       0.078246176 0.15659642 0.08759256 -0.25630674
000210 fa af 0a be 2f ce ae 3d 34 9c 24 be 48 84 9b 3d
       -0.13543692 0.0853542 -0.16075212 0.0759359
000220 6a f0 32 3e b4 72 a1 3d 98 3d 00 be c1 6b 8e bd
       0.17474523 0.07883206 -0.12523496 -0.06954146
000230 96 63 11 3e 61 60 ee bd e1 85 38 3e 18 dc 81 be
       0.14198145 -0.116394766 0.18019821 -0.2536323
000240 46 f6 b6 bd 7c 4f f5 3c 99 9e 12 3e a1 9a d8 bd
       -0.08933692 0.029945128 0.14318313 -0.10576368
000250 6b dc fb 3c a6 36 1d 3c 79 54 84 bd 0e 28 05 bd
       0.030744752 0.009595549 -0.064614244 -0.032508902
000260 c0 c2 ad bd f4 8f e4 3d 2f 04 43 be 08 70 77 bd
       -0.08484411 0.111602694 -0.19044565 -0.060409576
000270 0e cd e5 3d 42 db 89 3d de 88 e4 bd d9 12 0d be
       0.11220752 0.06731273 -0.11158918 -0.13776721
000280 80 d5 02 bd 18 bf 9f 3c 4a 6b 87 bd c9 fb 05 bd
       -0.03194189 0.0195003 -0.06612261 -0.032710824
000290 0c 00 29 bd 75 b5 d7 bd 4d dd bc bb 7e a5 a8 3d
       -0.04125981 -0.10532657 -0.005763686 0.0823469
0002a0 75 ca 06 be d5 db e6 3d a7 13 48 3e 5d 79 81 bc
       -0.13163169 0.112723984 0.19538747 -0.01580494
0002b0 14 0b d4 bd 23 90 5b 3e c4 7a e1 bd 5f 9c 86 3a
       -0.103536755 0.21441703 -0.11009744 0.0010269991
0002c0 6c ce 0b 3d ef 3e fd 3d 2b 1d 7b be ad e9 f3 bd
       0.034132406 0.12365519 -0.24522845 -0.119098045
0002d0 82 46 25 3e da bb 4d 3e 24 f5 a2 3c 4f 51 35 3e
       0.16140178 0.20091191 0.019892283 0.17706798
0002e0 b3 01 40 3e 1a 14 6f 3e 65 45 a6 be 37 90 8c bd
       0.18750648 0.23347512 -0.3247482 -0.06863444
0002f0 c4 be 90 3d fd 9e 85 be 0b e7 49 be 7e c7 45 3e
       0.07067636 -0.2609786 -0.19717042 0.19314381
000300 e7 58 35 3e cb 9a 07 3e ca b2 b1 b9 08 51 67 bc
       0.17709695 0.13242643 -0.0003389328 -0.01411844
000310 1a 30 76 3d 89 1f 5e 3d fc 96 22 be da d4 90 be
       0.060104467 0.054229293 -0.15877908 -0.28287393
000320 dd 18 b9 bc b5 8d e2 bd 1d 42 dd 3d 29 33 cf 3c
       -0.022594864 -0.11062185 0.10803626 0.02529295
000330 3f c6 3d bd d8 e2 64 bd af b8 bc bd cf 8b fd 3d
       -0.04633164 -0.055880398 -0.09214913 0.12380182
000340 37 f5 5c bc 4c 41 21 3d 0b bd 82 bd 16 a0 ed bd
       -0.013486198 0.039368913 -0.06383713 -0.116027996
000350 81 52 e5 3d 8e c6 82 3a 23 8e 19 be ac 7c 3d be
       0.11197377 0.0009977387 -0.14995627 -0.1850459
000360 b5 57 b0 3d 57 8b e2 bd 32 73 62 be 8e d7 81 3e
       0.08610479 -0.11061733 -0.22114256 0.25359768
000370 db 75 2f 3e d1 7d 7a bd 39 d9 12 3e 10 34 0a 3e
       0.17134802 -0.061155144 0.14340676 0.13496423
000380 fe 7a 05 3e 04 49 0e 3b fe 41 bf 3d 7c 3b 92 3d
       0.13035199 0.0021711001 0.09338759 0.07140252
000390 70 52 cc bd 2e d9 5c be 62 ec ca bd 90 99 d9 3d
       -0.09976661 -0.21567222 -0.09908368 0.10624993
0003a0 4f b2 81 bd 35 0b 77 bd 1d d2 64 3e de ac 8c bd
       -0.06332838 -0.060313422 0.22345777 -0.06868909
0003b0 f2 20 a8 3d 7a 29 17 3e 10 f7 34 3c a5 35 5f be
       0.08209409 0.14761916 0.011045232 -0.21797808
0003c0 c3 04 46 be 62 40 c3 bd 63 90 48 bd 99 ab 00 bd
       -0.19337754 -0.095337644 -0.048965823 -0.03141365
0003d0 ee 34 13 be f9 24 37 3d 9d 86 7f bd 5f 8d a3 3d
       -0.1437566 0.044712994 -0.062384237 0.07985949
0003e0 7d ae e9 3c 46 09 ca bd 8b 85 8c be 51 86 37 3e
       0.028525585 -0.0986505 -0.27445635 0.17922331
0003f0 fb b0 44 3e 96 c4 42 be 77 79 1d 3e 4e 52 a5 bd
       0.19208138 -0.19020304 0.15378366 -0.08072339

StatefulPartitionedCall/sequential_42_1/dense_135_1/Add/ReadVariableOp:0 f4 [128]
000000 3f 08 3a bc a3 c4 e7 bc 1e 62 b9 36 be ad b3 3c
       -0.011354505 -0.028292006 5.524852e-06 0.021933433
000010 57 48 f4 3c 91 8d a3 bc 4c 63 63 bd b5 a8 38 3b
       0.02981965 -0.019964965 -0.05551462 0.002817673
000020 28 73 02 3d ce c7 97 39 e5 f7 69 bd 64 11 99 b8
       0.031848103 0.0002894983 -0.057121176 -7.298848e-05
000030 29 63 b5 3c e5 39 62 bc 84 92 96 3b d2 d1 93 3b
       0.02214201 -0.013807748 0.0045951027 0.0045110965
000040 16 ca 5a b9 17 91 94 36 1b 21 ad 3c 5a 1e f1 3b
       -0.00020865383 4.4276344e-06 0.02113395 0.0073583545
000050 bb f0 09 bd d4 02 ab 3c 5f 98 d5 3c dd 05 c4 bc
       -0.033676844 0.020875372 0.026073633 -0.023928577
000060 86 9a 78 3c 17 06 d4 3c a7 68 32 bd d8 59 9d bc
       0.01517356 0.02588181 -0.043556836 -0.01920788
000070 35 0c c0 bc 6a 95 d5 b8 9a d2 aa b8 65 27 93 3b
       -0.02344332 -0.00010184462 -8.145459e-05 0.00449078
000080 3b 55 89 3a 07 b7 a1 3b e3 88 d5 3b bd 41 16 bc
       0.0010477671 0.0049351486 0.0065165623 -0.009170947
000090 dd cd d7 bb e9 67 a9 bb fd 5f 59 b9 20 21 e8 ba
       -0.00658582 -0.0051698578 -0.00020730491 -0.0017710067
0000a0 31 b0 18 bd 14 bc 3b 3b b3 04 8a 39 bf 22 2a 3d
       -0.037277404 0.002864604 0.00026324912 0.041537043
0000b0 ff 9e 12 39 54 a9 f2 bb 60 57 f3 39 d0 9d db 3c
       0.00013982876 -0.0074054394 0.0004641367 0.02680865
0000c0 b1 8b 79 bc b3 00 95 3c 6a 91 3b 3b 14 a0 44 b9
       -0.015231059 0.01818881 0.002862061 -0.0001875165
0000d0 e2 1a 49 bc 20 b0 1a b9 58 a7 a0 bb fd 73 b0 3c
       -0.012274476 -0.00014752196 -0.0049027614 0.021539683
0000e0 fa 2e 74 bc 0e 5f 4d ba 01 c7 55 b9 9b 9f b1 3c
       -0.014903778 -0.00078342936 -0.00020387398 0.021682551
0000f0 53 f7 a4 bc de 36 7c 39 f6 1b c9 3b ba 81 7d 3c
       -0.020137465 0.00024053032 0.0061373664 0.015472824
000100 c8 cd 49 3d 10 68 9c 3b fc b5 58 37 2c 4c a5 3c
       0.049268514 0.0047731474 1.2916975e-05 0.020177923
000110 b3 1a 4d 37 8e 32 1e b8 f9 e1 a1 bd bd 6a 91 39
       1.2225169e-05 -3.771722e-05 -0.07904429 0.0002773608
000120 26 e8 60 3b 12 2f 10 bd 1e 24 1d 3d 28 28 24 bc
       0.0034318059 -0.03520114 0.038364522 -0.01001934
000130 54 44 82 b9 47 78 be bc 85 4e df 3c 2d c5 85 39
       -0.0002484644 -0.023250712 0.02725912 0.00025514644
000140 80 c6 8f 37 06 a8 a9 3c bf e3 29 bd aa 1d 65 b9
       1.7139362e-05 0.020710003 -0.04147696 -0.00021850193
000150 d7 75 0a bc f8 a4 4a 3b a8 2a 94 b9 c6 23 ad ba
       -0.008450947 0.0030921083 -0.0002826054 -0.0013209514
000160 e6 64 27 bd 94 66 31 b8 8b ff b0 bc b0 85 dc b9
       -0.04086771 -4.2295622e-05 -0.021606227 -0.00042061275
000170 00 58 a3 b8 1b b0 a5 b8 11 5d dc bc fe 41 e2 bc
       -7.788837e-05 -7.900615e-05 -0.026899846 -0.027619358
000180 3c 70 98 3c f3 fc c9 bc 26 9c 4d bc d8 3c cc bc
       0.018608205 -0.024656748 -0.012549436 -0.024931356
000190 71 ba 1a bd f6 34 44 bd 62 6f 6f 38 85 17 01 bc
       -0.03777546 -0.04790207 5.7085774e-05 -0.007879143
0001a0 45 b8 8e bc 3a d2 2a 3d 5f a7 a4 3c 3b 97 76 bc
       -0.017421851 0.041704394 0.02009934 -0.015050705
0001b0 51 f4 26 3d 22 fc 02 bd 5d f2 28 b9 36 6f 37 3c
       0.040760342 -0.031978734 -0.00016112016 0.011195948
0001c0 4e 8a 76 bc b7 70 d3 bc 86 09 e1 bb fc b0 56 b8
       -0.015047623 -0.025810583 -0.0068675904 -5.1186405e-05
0001d0 58 35 af 37 7c fa c9 b8 b0 d1 f9 bc 32 12 15 3d
       2.0886466e-05 -9.631083e-05 -0.030495495 0.036394306
0001e0 8c 32 cd 3c 3d 3a 11 bb 69 68 41 3c c8 02 ea bc
       0.025048517 -0.0022159957 0.0118046785 -0.02856578
0001f0 9a 69 a9 bc 44 dd 96 38 c2 ff 0e b9 74 65 46 ba
       -0.020680238 7.193771e-05 -0.00013637453 -0.0007568218

StatefulPartitionedCall/sequential_42_1/batch_normalization_95_1/batchnorm/sub:0 f4 [32]
000000 73 97 30 bf c1 24 2d bf f0 40 0e bd 98 3c 2b bf
       -0.68981093 -0.67634207 -0.034729898 -0.66889334
000010 78 3a 77 bd d2 9e 29 be 1a 0f 35 bf 0e df 07 be
       -0.060358495 -0.16564491 -0.7072617 -0.13268682
000020 80 02 ea bc e0 de 7d bd 24 74 1b bf a0 55 14 3d
       -0.028565645 -0.06198013 -0.6072409 0.03621447
000030 e8 f8 21 bd a4 35 c5 bd 90 b0 b0 bd ee c7 42 bf
       -0.039544016 -0.09629372 -0.086274266 -0.7608632
000040 a4 01 8f bd c2 4f 2b bf 78 4d f6 bd 70 86 bc bc
       -0.06982735 -0.66918576 -0.12026495 -0.023013324
000050 50 b2 0a bd fc 76 96 bd 42 e3 1e bf 98 f1 21 bd
       -0.03386146 -0.07346913 -0.6206552 -0.039537042
000060 e0 36 94 bd 94 ff 26 bf 40 97 18 bc ec 5a 49 bf
       -0.07237029 -0.6523373 -0.009313405 -0.7865436
000070 2f 10 2e bf a0 6a 19 bd e0 9d 37 bf 10 62 64 bd
       -0.67993444 -0.0374552 -0.71725273 -0.055757582

StatefulPartitionedCall/sequential_42_1/batch_normalization_95_1/batchnorm/mul:0 f4 [32]
000000 10 01 38 3f cf 2d 30 3f e1 dc 22 3f c7 a2 21 3f
       0.7187662 0.688199 0.63618284 0.63139004
000010 e7 56 4a 3f 6e 03 20 3f 21 67 11 3f 3a bc 30 3f
       0.7903885 0.62505233 0.5679799 0.6903721
000020 9e de 28 3f 5c a1 3a 3f 5e 52 11 3f 06 8c 30 3f
       0.65964687 0.72902465 0.5676631 0.6896366
000030 cb 09 39 3f b8 dd 15 3f 4d 4b 47 3f 31 2f 3e 3f
       0.7228057 0.5854144 0.77849275 0.7429076
000040 95 5c 4f 3f 39 43 01 3f ee a5 1a 3f 0a 20 1c 3f
       0.81000644 0.504932 0.6040944 0.6098639
000050 9f 2f 3c 3f 26 91 17 3f c8 8c 1a 3f 1f c4 0e 3f
       0.73510164 0.59205854 0.60371065 0.5576801
000060 84 ae 4b 3f cf c1 23 3f 18 a2 1a 3f 0d f6 4a 3f
       0.79563165 0.63967603 0.60403585 0.79281694
000070 51 d8 3a 3f 4a e0 21 3f e7 39 4e 3f b8 f1 12 3f
       0.7298632 0.6323286 0.805571 0.57400084

StatefulPartitionedCall/sequential_42_1/batch_normalization_94_1/batchnorm/sub:0 f4 [64]
000000 f0 f3 cb be fc 9d b1 be 85 c3 a9 be e7 01 cd be
       -0.39834547 -0.34690845 -0.33156982 -0.40040514
000010 f1 f1 cb be 07 fc b4 be 9b 94 b3 be 60 19 c4 be
       -0.39833024 -0.35348532 -0.35074314 -0.3830061
000020 ef f4 ac be 00 a1 f1 be 02 ad ab be b1 c8 b2 be
       -0.3378062 -0.47193146 -0.33530432 -0.3491874
000030 69 7f c7 be c4 0e df be 14 18 fe be 41 86 db be
       -0.38964394 -0.43565953 -0.49627745 -0.42875865
000040 e5 12 da be 78 a3 b7 be e7 f9 b6 be 0c 63 bc be
       -0.4259254 -0.35866904 -0.35737535 -0.36794317
000050 c9 84 af be 6f 90 d6 be 1b 65 9d be 68 92 d2 be
       -0.34280995 -0.4190707 -0.307412 -0.41127324
000060 9b 3a ab be a3 a6 ba be cc fc c2 be 67 d9 a8 be
       -0.3344315 -0.3645526 -0.38083494 -0.32978365
000070 2d b2 a8 be f7 8c f8 be 55 33 f5 be c2 30 c7 be
       -0.32948437 -0.48545048 -0.47890726 -0.38904387
000080 b6 a3 8c be d6 28 c1 be 05 87 e4 be 9a 91 ec be
       -0.27468652 -0.37726468 -0.44634262 -0.46204835
000090 59 dd ee be 64 d7 d8 be 4e b7 ca be 55 32 a0 be
       -0.4665325 -0.4235183 -0.39592975 -0.312884
0000a0 1b d3 a9 be 32 91 db be 85 0b c0 be 6b f3 e9 be
       -0.33168873 -0.42884213 -0.3750879 -0.45693526
0000b0 2e 21 9f be c6 09 fb be dc e6 e4 be b0 cc a2 be
       -0.31080002 -0.49030894 -0.44707382 -0.3179679
0000c0 ee 15 9d be 43 6c d9 be fd 15 fe be 1e e5 d6 be
       -0.30680794 -0.4246541 -0.4962615 -0.41971678
0000d0 fd c4 b3 be 47 6d ba be 65 cb e0 be 1e 21 c9 be
       -0.35111228 -0.36411497 -0.43905178 -0.3928308
0000e0 97 bf b9 be f6 fb 97 be fb 83 bd be 50 b7 99 be
       -0.36278984 -0.29684418 -0.37014756 -0.3002267
0000f0 48 6d cf be e6 09 d3 be c0 ef d0 be 6f 58 c4 be
       -0.40513062 -0.4121849 -0.40807915 -0.3834872

StatefulPartitionedCall/sequential_42_1/batch_normalization_94_1/batchnorm/mul:0 f4 [64]
000000 5f c8 60 3f d1 bf 59 3f 6d 76 84 3f ad 1d 25 3f
       0.8780574 0.85058314 1.0348641 0.64498407
000010 e7 35 41 3f b5 eb 67 3f 45 ae 32 3f 7d 3b 85 3f
       0.75472873 0.90594035 0.69797164 1.0408779
000020 0b c0 72 3f a7 07 32 3f ba 21 84 3f 6b f3 44 3f
       0.94824284 0.69542927 1.0322793 0.76933926
000030 e7 36 22 3f b8 c1 5c 3f 2e 26 8e 3f 8e 07 4f 3f
       0.63365024 0.8623309 1.1105402 0.808709
000040 ed d6 74 3f e2 f0 30 3f d0 bc 25 3f cb 7f 39 3f
       0.9564045 0.6911756 0.6474123 0.7246062
000050 1d f3 3c 3f 6e 70 5f 3f 15 aa 5d 3f a9 38 93 3f
       0.7380846 0.8728093 0.8658765 1.1501666
000060 3c 3d 4f 3f 36 a5 40 3f 91 af 54 3f cc 22 48 3f
       0.8095281 0.7525209 0.83080393 0.78178096
000070 ea 74 44 3f db 25 70 3f d9 02 8a 3f 8b ac 44 3f
       0.76740897 0.9380776 1.0782119 0.7682578
000080 5d db 50 3f 67 06 6f 3f 2f b8 74 3f 71 fb 6e 3f
       0.8158472 0.93369144 0.9559354 0.9335242
000090 85 88 62 3f 31 31 17 3f a6 0a 49 3f d6 eb 51 3f
       0.8848956 0.59059435 0.78531873 0.8200048
0000a0 37 4a 6d 3f 8d 83 5f 3f 04 89 45 3f 7f f1 2b 3f
       0.9269137 0.87310106 0.77162194 0.6716537
0000b0 72 aa 37 3f db 4a 86 3f 52 1b 33 3f 37 96 54 3f
       0.71744454 1.0491594 0.6996356 0.8304171
0000c0 c9 04 76 3f d6 67 55 3f 82 3c 71 3f 35 af 68 3f
       0.9610105 0.83361566 0.9423295 0.90892345
0000d0 6a cf 60 3f 18 d7 57 3f 0c 3d 73 3f 7c dd 4f 3f
       0.8781649 0.8431258 0.95015025 0.81197333
0000e0 a4 63 3b 3f 89 7c 56 3f cd bd 92 3f 27 4b 52 3f
       0.73198915 0.83783776 1.1464173 0.82145923
0000f0 58 6a 40 3f e1 8b 51 3f 77 12 80 3f 5d d2 2d 3f
       0.7516227 0.81854063 1.0005635 0.67899114

StatefulPartitionedCall/sequential_42_1/batch_normalization_93_1/batchnorm/sub:0 f4 [128]
000000 25 ac 7a 3f af bf 42 c0 f0 bc dd 3f b3 28 9e be
       0.9791892 -3.0429494 1.7323284 -0.30890426
000010 4c 54 fa bf 72 4e 45 3f d3 41 60 bf cc 35 11 c0
       -1.9556975 0.77072823 -0.8760044 -2.2689085
000020 20 37 b4 bf ef be 19 c0 38 80 c1 bf b0 8d bf 3f
       -1.4079323 -2.4022787 -1.5117254 1.4965115
000030 0f 42 9c be 27 c2 4b bf 8a f7 e9 bf fa 72 bd 3d
       -0.3051915 -0.7959313 -1.8278668 0.09250446
000040 c7 89 af 3f 68 48 1d c0 4e 79 d9 bf 98 67 f9 bf
       1.3713921 -2.4575443 -1.6990144 -1.9484739
000050 61 a5 f9 bf 79 08 12 bf 9c 35 ee be a1 ac 8b bf
       -1.9503595 -0.5704418 -0.46525276 -1.0912057
000060 4c d5 bb be 2b fa 97 bf 20 ab a6 bf 25 6d 7e 3f
       -0.3668617 -1.187322 -1.3020973 0.9938529
000070 aa c0 87 3f 77 74 49 c0 09 00 b0 3f 20 03 fb 3e
       1.0605671 -3.1477334 1.3750011 0.49025822
000080 f2 68 63 bf d9 92 bd bf ef d7 04 c0 00 5c 10 bd
       -0.8883201 -1.4810439 -2.0756795 -0.035243988
000090 17 e0 88 3f ed e7 90 bf 39 10 ac 3f 25 31 32 c0
       1.0693387 -1.1320778 1.3442451 -2.7842495
0000a0 a1 b3 94 3f 3f 01 89 3e 04 f2 59 c0 11 6a 4a 3e
       1.1617318 0.26758763 -3.4053965 0.19767024
0000b0 b2 0e ab 3f 5a f3 1b 3f cd 71 38 c0 4e d8 49 3f
       1.336386 0.609182 -2.8819458 0.7884568
0000c0 5b cd 76 bf 40 41 cc 3e 1e db a2 be 2e 0c 2c c0
       -0.964071 0.39893532 -0.31807798 -2.6882434
0000d0 5e b0 82 3f b2 b4 12 3f f6 4e 39 3d d6 c6 62 bf
       1.0210073 0.5730697 0.04524132 -0.8858465
0000e0 23 a7 b2 3f b8 21 9b 3f 67 9f 25 c0 f1 08 18 c0
       1.3957256 1.2119665 -2.5878541 -2.3755457
0000f0 53 1d 19 be 67 f0 84 c0 fb 58 84 bf 2a e6 94 be
       -0.14952593 -4.154346 -1.0339655 -0.2908185
000100 08 34 15 be 06 27 15 c0 09 28 0f c0 56 0f a3 be
       -0.1457063 -2.3305068 -2.2368186 -0.31847638
000110 0e fc 76 c0 dd 3b 7b c0 df a7 9e bf ba 07 6c c0
       -3.8591342 -3.9255288 -1.239498 -3.6879716
000120 fa a5 0b 3e c0 c0 f9 3d 2e 35 c5 bf 3c 71 e6 bf
       0.13637534 0.12194967 -1.5406854 -1.8003306
000130 56 30 b0 3f b7 ec 7d 3e 94 6b b0 bf 9c 8c e5 3f
       1.3764751 0.24797331 -1.378283 1.7933536
000140 a5 a7 d2 3f b8 80 c6 bf f8 09 19 c0 f3 90 34 c0
       1.6457411 -1.5508032 -2.3912334 -2.821347
000150 8e 0c 9a bf be 11 9b 3f 2e 69 fd 3f 82 9a 27 bf
       -1.2035081 1.211479 1.9797723 -0.65470135
000160 99 d2 f4 bf f4 93 ed bf 28 b3 70 3f 3c d3 ac 3f
       -1.9126769 -1.8560777 0.9402337 1.3501964
000170 49 91 d1 3f 26 0e af 3f 57 7e 87 bf 6b 90 ab 3f
       1.6372463 1.3676193 -1.0585431 1.3403448
000180 78 4e ed bf 28 79 90 3f a1 83 f1 be f1 97 04 bf
       -1.8539572 1.1286974 -0.47170737 -0.51794344
000190 15 17 86 3f f0 fe d2 be ac fa 1c c0 1e 82 89 3f
       1.0475794 -0.41210127 -2.4527998 1.0742834
0001a0 83 e6 4b 3f 20 31 da bf 96 ee 18 c0 8d fe 77 3f
       0.7964861 -1.7046242 -2.3895621 0.9687279
0001b0 79 39 4b bf 8f 6e 98 bf 9d df 48 c0 16 21 84 3f
       -0.7938457 -1.190874 -3.1386483 1.0322597
0001c0 c6 41 a5 3f f4 32 cb bf 9b aa 02 c0 56 18 23 c0
       1.2910697 -1.5874925 -2.041663 -2.5483603
0001d0 4b 1d aa 3f f0 1f 2f c0 c2 73 93 3e 02 0c 16 c0
       1.329019 -2.7363243 0.28799254 -2.344483
0001e0 58 21 f2 bf aa b7 31 3e a3 03 2d c0 b9 a9 38 3f
       -1.8916426 0.17355219 -2.703347 0.72133976
0001f0 d6 58 4c 3e 02 89 03 c0 a2 00 4e c0 c8 2e 35 3f
       0.19955763 -2.0552373 -3.2187886 0.7077451

StatefulPartitionedCall/sequential_42_1/batch_normalization_93_1/batchnorm/mul:0 f4 [128]
000000 c3 ab 83 40 43 34 22 40 40 9c 87 40 87 58 20 40
       4.114717 2.5344398 4.2378235 2.5054033
000010 72 cc 20 40 80 52 7d 40 d3 a4 2d 40 22 ee cd 3f
       2.5124784 3.9581604 2.713185 1.6088297
000020 9e 4a 20 40 41 fc 14 40 bf b7 1c 40 80 be 72 40
       2.5045543 2.3278964 2.448715 3.7928772
000030 4c ca 13 40 0a df 6b 40 aa 7c 21 40 bd 01 59 40
       2.3092222 3.6854882 2.523234 3.390731
000040 d1 1d 88 40 28 f9 06 40 fe 49 1a 40 b5 fd e0 3f
       4.2536397 2.1089573 2.4107661 1.7577425
000050 a7 f0 02 40 03 56 1b 40 53 51 33 40 f4 d6 15 40
       2.0459383 2.4271247 2.8018386 2.3412447
000060 bb 36 36 40 be 5c 2f 40 fb 7b ea 3f 3d a7 6e 40
       2.8470905 2.7400355 1.8319086 3.7289574
000070 5b 11 5e 40 7c f7 0c 40 b8 0d 6f 40 7b 93 82 40
       3.4698093 2.2026052 3.7352123 4.080503
000080 23 06 42 40 76 ca 12 40 40 01 07 40 4a cb 37 40
       3.0316246 2.2936072 2.1094513 2.8717828
000090 2d 52 6e 40 eb c7 15 40 f4 a6 88 40 73 4a 32 40
       3.7237656 2.340327 4.27038 2.785794
0000a0 82 9e 53 40 61 7e 77 40 96 e3 3b 40 c6 91 49 40
       3.3065495 3.8670886 2.9357657 3.1495223
0000b0 f4 7c 7c 40 a3 16 6d 40 fd fe 3b 40 83 c0 5d 40
       3.9451265 3.7045066 2.9374382 3.464875
0000c0 af 21 32 40 4f d6 5a 40 57 ea 2d 40 b5 e9 07 40
       2.783306 3.4193304 2.717428 2.1236393
0000d0 06 15 75 40 fc 01 5b 40 4f c0 47 40 11 22 3c 40
       3.8294082 3.421996 3.1211126 2.9395792
0000e0 15 eb 81 40 e8 da 89 40 8a a9 5d 40 01 71 ea 3f
       4.0599465 4.307972 3.4634728 1.8315736
0000f0 44 9b 21 40 cf 25 52 40 fb 8f 31 40 f9 ef 3e 40
       2.5251017 3.2835577 2.7744129 2.9833968
000100 61 fc 10 40 79 78 00 40 db 14 f2 3f 7b 07 21 40
       2.265404 2.007353 1.8912615 2.5160816
000110 f7 a5 34 40 6c 50 42 40 8a b1 0b 40 88 3c 25 40
       2.8226297 3.0361586 2.1827111 2.5818195
000120 7c dd 39 40 fd 95 5a 40 24 7a 09 40 9d 39 0e 40
       2.9041433 3.4154046 2.1480799 2.2222664
000130 e1 20 87 40 93 00 62 40 29 40 d3 3f 5b 98 8a 40
       4.2227635 3.531285 1.6503955 4.331098
000140 68 8d 8a 40 60 87 0d 40 0d 1a 02 40 e3 cd 0c 40
       4.3297615 2.2113876 2.03284 2.2000663
000150 65 03 02 40 38 96 5d 40 1e 75 87 40 78 82 1d 40
       2.0314572 3.4622936 4.2330465 2.4610882
000160 14 20 0c 40 1f 3f df 3f c0 21 82 40 64 85 89 40
       2.189458 1.7441138 4.06662 4.297533
000170 ed 30 81 40 86 cc 73 40 58 e1 3a 40 55 ad 80 40
       4.0372224 3.8093581 2.920004 4.0211587
000180 ab cc 13 40 ee 68 4e 40 ce 72 1e 40 d0 58 42 40
       2.309367 3.2251544 2.4757571 3.0366707
000190 0c ee 83 40 0b b3 28 40 40 98 14 40 29 b5 82 40
       4.1228085 2.635928 2.3217926 4.0846143
0001a0 c1 6d 76 40 51 4b fe 3f d5 a8 0d 40 9b 4e 62 40
       3.8504488 1.9866735 2.2134297 3.5360477
0001b0 c6 1e 2d 40 f5 22 16 40 63 8d 26 40 c2 2d 7b 40
       2.7050033 2.3458836 2.6023796 3.9246678
0001c0 4a be 74 40 3b c0 d2 3f b2 36 ea 3f c4 e7 0e 40
       3.8241143 1.6464914 1.8297942 2.2328959
0001d0 62 22 79 40 e8 11 f0 3f 84 08 39 40 15 68 11 40
       3.8927236 1.8755465 2.8911448 2.2719777
0001e0 2b bb 23 40 87 a9 69 40 ee b1 f5 3f f9 e0 7f 40
       2.5582988 3.6509721 1.9194925 3.9981062
0001f0 de 3d 5b 40 41 0f 20 40 f9 f8 1b 40 9e 42 68 40
       3.425651 2.500931 2.437071 3.629066
