Model/Models/final_model.tflite (tflite, 54288 bytes, 8 tensors)

arith.constant f4 [6, 32]
00000000: 0548 88be bec5 82be 5b4e b83e 2bea 22be
00000010: 25bb 753e 7670 b63e d177 b8be 1af5 b03e
00000020: c206 ba3a 10f6 d63d 6778 a0be d824 db3d
00000030: 4f0f 4d3e acb0 243d c630 de3e 279f 9dbe
00000040: 9921 fd3e f7da 073c 1969 fd3d 59ec 4f3e
00000050: 789d 17bd 998f d03d 40ec febd 522e 6f3e
00000060: f351 f03e 6a43 31be 9444 673e 5f8f aabd
00000070: e673 433d 24fa a83e 7d9a 7fbe df1e 4e3e
00000080: 2b06 de3c 6e32 32be 9cc1 423e 95ca 49bd
00000090: 8bcc 363e 3038 813e 8150 4cbd c389 9c3e
000000a0: ca01 ddbd e3a0 8a3e 80b8 763d 7529 333e
000000b0: 2287 5e3e bc6f c23d 85a4 b83e 70a2 0fbe
000000c0: b531 ab3e e4ba 9ebe 4a79 a43e b24c a13e
000000d0: 1bc9 513e 5f6b 81bc 6881 b4be f900 c03d
000000e0: 7bba 9d3e 9047 21be e6bf 8d3d e0be cdbd
000000f0: 360e 6bbe dc4d 673e ccd1 84be 889d a13e
00000100: a1db 8fbe 80d8 07be 77d0 f33d c5fa 40bd
00000110: b112 7d3e ff9f ae3e 4cb3 97bd 2f1a c73d
00000120: f7cb a63e 4e8c 6f3e d4d0 67be df5f 203e
00000130: 56e8 4a3e e5e4 703e 7190 d83d c4bd b2bd
00000140: b4b6 843e 4e7c 3e3d 15f2 a13d d3e5 f93d
00000150: ad96 0a3e 6e6c ab3e 0c1b 8cbe 091d a93d
00000160: 34ec 0f3e 2185 a5be 8854 4a3e a216 c4be
00000170: c645 87bd fcd3 383e 5540 31bd 2db3 56bd
00000180: 2e65 3fbe 1083 8fbe 8edf 303e e0b5 8dbe
00000190: ef95 653e 856f 913e 0076 1fbe b763 8a3e
000001a0: 91bf bc3e d5ab 243e 92a6 88be 449f 6d3e
000001b0: ce44 653c 1678 c43e b2e0 a83e a19a 50be
000001c0: 45c0 ae3e 6807 90be bca8 983e 7719 893e
000001d0: 19d3 bf3e ae0f 9b3e b16c ac3c 6a66 b43e
000001e0: 0f48 853e d0f6 4fbe e166 343e 2929 2bbe
000001f0: eeb5 2dbc f8bf 813d 75cc 54be 6114 0dbd
00000200: efe5 86be 820f 873d a09a 723d 11e6 8cbe
00000210: 20d3 be3d c3ee 47bd 025b 343b 8e82 533e
00000220: 0f49 7f3e 9e90 b33e f096 61b9 e559 863e
00000230: dec6 0f3e db49 a63e 21a7 31bd 7e34 b5be
00000240: 8407 803e 4910 32bd ac5b a53e 7ed6 04bc
00000250: a792 453e 8c1c 083d cdba 48be 6efc 3c3e
00000260: 40ce c0bc 14d1 523d 1bcf 993e 0935 9fbe
00000270: 5597 c2be f470 873e 3588 5dbe 9069 9d3e
00000280: 4dd7 18be 640a 8dbe 8ca8 193e bd09 70be
00000290: 41b3 bd3e ee43 a33e 625b 3dbe ebd7 023e
000002a0: 1198 453e 0b7d efbc 1cc9 92be 9a78 3a3d
000002b0: 6e61 863e 71ff 833e 3f9a dd3d e6ff 15be
000002c0: 32e2 8c3e 6b79 92be 9105 173e c9d5 3dbc
000002d0: 4e80 703e b5c8 123e ad79 08be d642 6fbc
000002e0: 5b11 8e3e 50b0 36be 831b 9ebd 5f87 12bd
000002f0: c882 04be c579 c03d 2656 b2be f97f 533e
-0.26617447 -0.2554149 0.3599728 -0.1590964 0.23997171 0.35632676 -0.36028913 0.34561998
0.0014192688 0.104961514 -0.3134186 0.10700387 0.20025371 0.04020755 0.43396586 -0.30785486
0.49439695 0.008291951 0.123735614 0.20305003 -0.03701541 0.10183639 -0.12447405 0.23357514
0.46937522 -0.17310873 0.22584754 -0.08328127 0.04771795 0.33003342 -0.24961276 0.20128964
0.02710255 -0.1740205 0.19019169 -0.049265463 0.17851464 0.2523818 -0.049881462 0.30573854
-0.10791357 0.27075872 0.060234547 0.17496283 0.21731237 0.09493968 0.36063018 -0.14026809
0.3343636 -0.3100196 0.32123786 0.31503826 0.20486872 -0.015798269 -0.3525498 0.093751855
0.30806336 -0.15749955 0.06921367 -0.10046172 -0.2295464 0.22588295 -0.25941312 0.315655
-0.2809725 -0.13266182 0.11904996 -0.047114152 0.24714161 0.34106442 -0.07407245 0.09721791
0.32577488 0.23393366 -0.22638255 0.15661572 0.19815192 0.23524816 0.10574425 -0.08727601
0.2592064 0.046505265 0.079075016 0.122020386 0.13534041 0.33481163 -0.27364385 0.08257491
0.14054948 -0.32328132 0.19758809 -0.38298517 -0.06605105 0.18049616 -0.043274242 -0.05241697
-0.1869094 -0.2802968 0.1727278 -0.27677822 0.22420476 0.28405395 -0.15572357 0.270292
0.36864904 0.16081174 -0.26689583 0.23205286 0.013993455 0.38372868 0.3298393 -0.20371486
0.34131065 -0.2813065 0.29816234 0.2677724 0.37465742 0.302854 0.021047922 0.35234386
0.2603154 -0.20308995 0.1761737 -0.1671492 -0.010602457 0.06335443 -0.20781119 -0.034443263
-0.263473 0.06594755 0.059229493 -0.27519277 0.09317613 -0.048811685 0.0027520065 0.20655271
0.24930213 0.35071272 -0.000215139 0.2624046 0.14040706 0.32478222 -0.043372277 -0.3539161
0.25005734 -0.043472562 0.32296503 -0.00810778 0.19294225 0.03323035 -0.19602509 0.1845567
-0.023535848 0.051468924 0.3004082 -0.3109515 -0.38006082 0.26453364 -0.2163399 0.307446
-0.1492588 -0.2754699 0.15005702 -0.23441215 0.37050822 0.31887764 -0.18491891 0.12777679
0.1929629 -0.02923443 -0.2866906 0.04552517 0.26246208 0.25780824 0.10820436 -0.14648399
0.27516323 -0.2860826 0.14748217 -0.011586615 0.23486444 0.14334376 -0.13327666 -0.014603337
0.27747616 -0.17840695 -0.07720091 -0.03577363 -0.12940514 0.09398226 -0.3483135 0.20654286

arith.constant1 f4 [6]
00000000: 56c8 0640 6dba ce3f ea8b e03f 8d5f 0740
00000010: 9e2b ee3f 2069 1740
2.1059775 1.6150643 1.7542698 2.115207 1.8607061 2.3657913

arith.constant2 f4 [32, 64]
00000000: 644a 173e ecac a53d 3744 4a3e 7e05 b23d
00000010: bdf4 13be dace 553e 3c11 e8bb ee8b 83bd
00000020: 8fbf 0fbe 09fa 47bd 4fb7 48be ecc5 7bbd
00000030: 941e 593d 08b3 41ba 4611 0d3e c7d6 1bbe
00000040: 061c 6ebd 1656 cabd 8835 c73d ec3d 57bc
00000050: 54ae 2fbe 366d cbbd 63b6 d33d fafc 683e
00000060: 8272 493e 6ad5 4d3e b5eb 133d f618 8f3d
00000070: 8637 763d ae52 393e 2273 43be ed7d 0f3e
00000080: 72f0 c13c e063 3abe 9420 17be ef9c 3fbe
00000090: cc27 adbc 15f9 95bd 63fe 05be 7625 a93d
000000a0: 5c90 a73d 252b 38be ed34 0e3e d7f5 12bd
000000b0: 0dcd 27be 0afc d43d 3878 12bd d30c ba3d
000000c0: f8c9 1dbd 8cda bdbd 4756 ec3d b9cf d83d
000000d0: 603f 813d 1882 9c3b 0188 f43d c690 c7bd
000000e0: 854d c13d 8803 d43d 57fa 153d d001 103e
000000f0: 9a2d f6bd f22b 8abd 529c 53be 78ca 5b3d
00000100: 432d 8ebd a36f 6abb b2e9 543e 95ec d03d
00000110: 7da6 773c 4f43 edbd c935 013e da45 acbd
00000120: 7e9a 9d3d dee6 5ebd b0bd 0dbe 8c77 ad3c
00000130: 4e6f b5bd 398d 8abd cea4 3a3e 0a0b b33d
00000140: 9801 ac3c cd36 673d 1caa c13d 9a6e 343c
00000150: 3cb2 673d d059 733e 0806 34bc 3093 34be
00000160: 3688 25bc 2829 8b3d 55df eabd ea14 f13d
00000170: c1d6 ad3d 9f85 9e3c bf90 5b3e 565f c9bd
00000180: d516 c43d 9de9 d03d 56c0 2d3e 1033 3d3e
00000190: eb8b f23c 4da3 e13d 8201 0c3e 1d68 d8bd
000001a0: 733f 68be fcb7 58be f9f1 eebd 7669 26bd
000001b0: b92e b63c 2aff 38be 342e ab3c 5da4 f0bd
000001c0: 4d42 b03d ff39 85bd 1620 2abe ca5c 083e
000001d0: 4503 c9bd 11a2 25be 085f 233e 6aca b63d
000001e0: 900b d6bc 33c3 e23d a3be 11be 441e b43d
000001f0: c9fe c8bd 7886 81bc 3849 fdbd ad35 fabd
00000200: 4880 0bbe 97f5 07be 3ef6 07be 3c9b 0cbe
00000210: 6371 e0bd efb0 273e 2470 b4bb 8414 07bc
00000220: 97a5 cc3d d683 0cbd 6aa8 f4bd b3c7 9fbd
00000230: 1f04 57bd 923f e03d a5d2 bcbd 67e0 0ebe
00000240: 260e b2bc 4e85 c1bd 7004 0c3d 6452 9b3d
00000250: 1656 233e 77e6 21bd a7b3 e43d b06a 383e
00000260: 46e3 fe3d 1aa9 5b3d 7e63 243d 973e 14be
00000270: 2d58 f83c e856 cb3d 59e9 7fba c721 883d
00000280: 8f11 54bc a85e e5bd 0860 51be 85a5 36be
00000290: 4577 63bd 08cf 8bbc e18d a6bd 9b36 e33c
000002a0: 3e43 a23d c617 d83d 09be d13d f586 f8bd
000002b0: e624 20bd ba1a 623e 6dc0 9f3c 93d8 2a3e
000002c0: 53bc 4e3d 5d78 473d ffd5 613e 790a 523b
000002d0: 3b67 4c3e 2005 0e3d 95e3 13be 8c1f 343e
000002e0: 4006 0e3e fcab 01be 67fc 4dbc 3f0a a73c
000002f0: 7cde 013e 3c4a 223e a478 1ebd 43ed 963d
00000300: d7a0 ec3d 98f2 2b3e c13e e0bb 1f30 283c
00000310: b712 26bc a789 57bd 6ad1 a03d a1b7 cbbc
00000320: 5d99 7fbd 6d98 17be 4999 66bb c388 56b9
00000330: e7e9 40bd 3ea2 0dbe cf12 2b3e 5013 613e
00000340: 420e 403c cbd6 cebc b16d 053d 8ab8 ed3d
00000350: 1259 8dbd 7268 df3d 939e 3f3d e6fb f43b
00000360: 4e71 0abe dbe7 3cbe 8395 c6bd 90e5 a0bd
00000370: 45d4 85bd ced1 0c3d ccb6 2c3e a30f 06be
00000380: ea0e 1abe e90b f03c 130b 1dbe 0bb0 633e
00000390: 701a 7f3c f7be c53c 8fd4 e83d 0390 b53c
000003a0: fc98 bfbd b946 853c 57cb 9c3d a84a 22bc
000003b0: bbbe c83d 6276 463e a58d ad3b a843 ef3d
000003c0: 3c8a b3bd 96aa 19bd 99e4 5bbe 6d1d 253e
000003d0: 38da 8c3d 7460 17be cc27 5c3e ec45 f4bd
000003e0: d249 833c f71d 1dbe fdf1 52be e119 3d3e
000003f0: ff79 1cbe 8db1 a1bd 2718 893d 22d8 143d
0.14774472 0.08089623 0.19752584 0.08692454 -0.14448829 0.20879689 -0.0070821326 -0.06423174
-0.14037918 -0.048822436 -0.19601177 -0.06146805 0.053007677 -0.00073890435 0.1377612 -0.1521865
-0.058132194 -0.09879701 0.09727007 -0.013137322 -0.17156345 -0.0993294 0.10337522 0.22752753
0.19672588 0.20100942 0.03611346 0.06987183 0.060111545 0.18097946 -0.19086888 0.1401288
0.023674224 -0.18202162 -0.14758521 -0.18712209 -0.02113714 -0.07322899 -0.13085322 0.08259098
0.08181831 -0.17985208 0.13887377 -0.035878982 -0.16386814 0.10399635 -0.03575918 0.09084477
-0.03852269 -0.092702 0.115398936 0.10586495 0.06310916 0.0047762506 0.11940003 -0.0974441
0.09438614 0.10352236 0.036615696 0.14063191 -0.120204166 -0.06746663 -0.206651 0.053659886
-0.06942227 -0.0035772107 0.20792273 0.102013744 0.0151153775 -0.11585104 0.12618174 -0.08411761
0.07695483 -0.05441939 -0.13841891 0.021175168 -0.0885912 -0.06765217 0.1822693 0.0874234
0.020996854 0.056448746 0.09456274 0.011012698 0.056566462 0.2376473 -0.010987766 -0.17634273
-0.010103276 0.06794959 -0.114683785 0.11771567 0.08488227 0.019350825 0.21441935 -0.09832637
0.09574667 0.10200808 0.16967902 0.1847651 0.029607734 0.11017475 0.1367245 -0.10566733
-0.22680454 -0.21163934 -0.11667246 -0.04062792 0.022239076 -0.18066087 0.020896055 -0.117501
0.08606396 -0.065052025 -0.16613802 0.13316646 -0.09815077 -0.16175105 0.1595422 0.08925326
-0.02612856 0.110723875 -0.14232878 0.08794835 -0.098142214 -0.01581119 -0.12367481 -0.12217269
-0.13623154 -0.13277279 -0.13277528 -0.13731092 -0.10959127 0.16376089 -0.0055065323 -0.008244637
0.09992521 -0.034305416 -0.11946185 -0.078017615 -0.052494165 0.10949625 -0.09219865 -0.1395279
-0.021735262 -0.09449254 0.03418392 0.07584074 0.15950808 -0.03952643 0.111670785 0.18009448
0.12445693 0.053628065 0.040133946 -0.14477001 0.030315483 0.099286854 -0.00097622495 0.066470675
-0.012943639 -0.11199695 -0.2044679 -0.17836578 -0.055533666 -0.017066494 -0.0813253 0.027735999
0.07922982 0.105514094 0.102413245 -0.12135116 -0.03909769 0.22080508 0.019500935 0.16684179
0.05047257 0.04869877 0.2205429 0.00320497 0.19961254 0.034672856 -0.14442284 0.17590159
0.13869572 -0.12663263 -0.012572384 0.020390628 0.12682527 0.1584863 -0.03868927 0.07369473
0.11554115 0.16791761 -0.0068434183 0.010265379 -0.010136298 -0.05262151 0.078524426 -0.024867835
-0.062402118 -0.1480424 -0.003518658 -0.00020459578 -0.047098067 -0.13831422 0.16706394 0.21980023
0.011722149 -0.025248906 0.032575313 0.11607464 -0.069017544 0.10908593 0.046782088 0.0074763177
-0.13519785 -0.18447821 -0.09696486 -0.078562856 -0.06534628 0.034379773 0.16866606 -0.13091902
-0.15044752 0.029302554 -0.15336256 0.22235124 0.015570268 0.02413891 0.11368667 0.022163397
-0.09355351 0.016269075 0.076559715 -0.009905495 0.09802004 0.19381097 0.0052964264 0.11682826
-0.087666005 -0.0375162 -0.21473922 0.16124506 0.068775594 -0.14782888 0.21499556 -0.11927399
0.016026411 -0.15343462 -0.20600124 0.18466903 -0.15280913 -0.07895193 0.0669406 0.036338933

arith.constant3 f4 [32]
00000000: 9ecb 99bd 69d4 46be 8d7c 63be a330 d8bd
00000010: d324 623f 7258 503f 5857 d1be e909 593f
00000020: 3fb3 bcbf cc8f 8a3e d7da 7f3e 5e1a c53b
00000030: d8f5 3a3f 7ad5 2cbf 4a78 b63f a1e4 bfbe
00000040: 3e73 463f 9008 10be 1518 693e 20cc 01be
00000050: 7433 d53e a299 04be 3462 cb3d f3f1 8e3e
00000060: 68f9 9e3d 13c4 b9bd 5703 4abe 1547 8f3f
00000070: 6cc0 62be 42ff febd 1be5 03bf 31c6 d5be
-0.0750954 -0.19416966 -0.22215481 -0.10556152 0.8833744 0.81384957 -0.4088695 0.84780747
-1.4742202 0.27062833 0.24985825 0.006015106 0.7303138 -0.6751324 1.4255459 -0.37479118
0.77519596 -0.14065766 0.22763093 -0.12675524 0.41640818 -0.12949231 0.0993084 0.27918968
0.07762414 -0.09070601 -0.19727837 1.1193568 -0.22143716 -0.1245103 -0.5152146 -0.4175277

arith.constant4 f4 [64, 128]
00000000: c77e b13d 0353 763d 5299 173f 54c0 8fbe
00000010: e80f e0bd 389a d9bd 3b63 483e 9b22 9dbd
00000020: 6abb b23d 0691 3a3d c9bc 713e 441c a63e
00000030: e7f6 953b 76f5 ac3d 6009 223e 6116 c63e
00000040: 1a57 213f 7c48 773e 7dcd 31be 90ed 4dbd
00000050: a8d4 7c3e fe08 a83d 781f ce3e 2a5a 9d3d
00000060: 286d c33e 6168 f23e 5e9c 17be 1107 453e
00000070: a24b 2ebe 7c5d 1cbe c159 f13e 77a6 da3e
00000080: bff7 3ebe a8a6 8a3e edb6 333e 7d97 b93e
00000090: d9bf ec3e 53ec 5bbe bda9 3a3e 4454 38be
000000a0: 0b3d ca3e 06c2 a2be dcfb 9c3e 6f6d 943d
000000b0: 6516 86be 9ebb 05bf 40c9 9cbe d377 cabc
000000c0: 11e6 8c3e 191f 553e 8a22 7f3e 417a 21be
000000d0: 0c90 143f e984 1fbe 2975 b7be f02e 5d3e
000000e0: 38ad 093f 1d55 24be 4675 bbbd 42fa 723d
000000f0: 20d6 9e3d af94 00bf 4959 9c3e aa58 a03e
00000100: 77f4 7ebe 1dc1 083e 1d03 38be e55c 42be
00000110: 1182 8d3d b5d4 0abe 407d 09be 964d d4be
00000120: bd05 533e dc2e 3c3e 5a5f 443e 979d 9f3e
00000130: 2ace 203f 813f b7be 77be f53d b730 c13e
00000140: 0930 983e 71be 8bbe 6a8e 973e 39bf c6be
00000150: 287c 22be 67b9 3ebd c302 1e3f ed85 41be
00000160: 5b9d 9e3c 2f1a 373e 33e9 c53b a87e dd3e
00000170: a626 6e3e 9bdc e7bd c062 4c3e 4771 ef3e
00000180: aa09 793e d6b4 c03e de6f 363a a20e d13e
00000190: 905c e73e 7c64 843d 4495 813e f574 08bf
000001a0: 08b4 283e 4e91 f9bd 33fd 043e 8910 e2be
000001b0: 0b97 bebe 704b a23e d443 cb3e 7a2c 2d3e
000001c0: 0118 9abb 3a66 0bbe 8837 223e 692d c93e
000001d0: c225 04bf 04fa 753e c335 4abe e921 3cbe
000001e0: fe49 80bd e6c6 fbbe d924 66bd ab88 bc3e
000001f0: 39bc 3c3e ba15 133e a8af 133e d44a a7be
00000200: 132f ecbe 80f0 aabe 8f32 dfbe 4852 053e
00000210: 648b 013d 26e5 f3be b981 8a3e 29d3 1b3e
00000220: c140 603e a6a4 98bd 012e a0be 900a 673e
00000230: 3367 ef3d 8eee 1b3e 3798 6ebe c1f1 95be
00000240: a78a d63e c1c6 7a3d 6583 883e 3b27 043e
00000250: 9026 523e dd8c a4be 9d09 50be da81 d3bd
00000260: bb71 0cbe 7df5 073e f888 173d cd9e b93d
00000270: 9de6 e1be 4d75 17be fb80 d43e f306 b4be
00000280: c224 f1bd 053c 68be f8bd a23d c936 053f
00000290: 0cb6 fabd 5749 853e ca1c 953e 8fea e23c
000002a0: 5634 103e f3e8 d53e c735 d13d ab6c c7be
000002b0: 46aa 8dbe 6f74 cebe 5ac8 8ebe 9bca f6be
000002c0: 3deb 7cbe e02f 00be 5a63 a8be a6e2 3f3d
000002d0: 44e3 16bf ad5b cd3e e445 0d3f 4bc1 9d3e
000002e0: 161f d13e 4c12 313f 5164 f33d c94a 8d3e
000002f0: cc1f 103e 8652 85bd c77f 673e fe41 0f3d
00000300: ae30 f5bd 4a8e efbc 65c5 843e 8356 3fbc
00000310: c65a 89be 3e9f c6be 8f30 103d 99a1 cdbd
00000320: 97c1 83bd 2cea 793d 1b5a 90bd 2508 68bd
00000330: f7c7 993e 81bd 463e b180 8fbd c84e eabe
00000340: 8d65 5fbe 131c a23c 732c a0be 28bd d13d
00000350: 081f 44be 7e50 68bd 2882 a23d 9d7a 913e
00000360: 0cb1 0abe 801d 153e 5c7f 91be c7a9 363f
00000370: 6846 663e 31c9 6ebe b0e0 08be 412a 93bd
00000380: 5b92 473e 771c 46bc 32b2 223c c780 40be
00000390: cfa8 0b3f 4694 a03d c7ed 8abc 6593 903e
000003a0: 71da 0a3f 98c9 b23d 0350 02be 7cdb e6be
000003b0: fdf4 33be 233f a5be 6f97 85be 756a b73e
000003c0: 685e 1c3f d827 a53d 02cd 12bd 7357 c73d
000003d0: 0836 d13e fa74 623e 8148 88bd 351f bbbe
000003e0: adde 9abe d18b 84be b88c e93d 9947 2fbe
000003f0: 57a7 1c3f 86e8 ec3d 2c07 a83e b444 163f
0.08666759 0.06013776 0.59218323 -0.28076422 -0.10940534 -0.10625118 0.19569103 -0.07672616
0.08727153 0.04554846 0.23607172 0.3244344 0.004576552 0.084452555 0.15823889 0.3868895
0.6302353 0.24148744 -0.17363544 -0.050275385 0.24690497 0.0820484 0.40258384 0.07683213
0.38169217 0.4734526 -0.14805743 0.19240977 -0.17021039 -0.15270036 0.4713879 0.42705128
-0.18649195 0.27080274 0.1755025 0.3624839 0.46240118 -0.2147687 0.18228813 -0.18000895
0.39499697 -0.31788653 0.30660903 0.07247435 -0.2618896 -0.52239406 -0.30622292 -0.02471534
0.27519277 0.20812644 0.2491552 -0.15769292 0.580323 -0.15578045 -0.35831574 0.21599936
0.53779936 -0.16048093 -0.091532275 0.059320696 0.07755685 -0.50226873 0.3053687 0.31317645
-0.24897943 0.13354917 -0.17969938 -0.18980749 0.06909574 -0.13557704 -0.13426685 -0.41465443
0.20607658 0.1837725 0.19176999 0.3117492 0.6281458 -0.35790637 0.11999219 0.3773248
0.29724148 -0.27293733 0.2960084 -0.38817766 -0.15867674 -0.046563532 0.61722964 -0.18898745
0.019362142 0.17881082 0.0060397624 0.43260694 0.2325693 -0.11321374 0.19959545 0.4676611
0.24320093 0.37637967 0.00069594185 0.40831476 0.45187807 0.064644784 0.25309193 -0.5330346
0.16474926 -0.12185918 0.12987213 -0.4415324 -0.37224612 0.3169818 0.39700186 0.16911498
-0.0047025685 -0.13613215 0.15841496 0.39292458 -0.51620114 0.24021155 -0.19747071 -0.1837231
-0.06264113 -0.49175185 -0.056187484 0.3682302 0.18431176 0.14363757 0.14422476 -0.32674277
-0.46129665 -0.33386612 -0.4359326 0.13019669 0.031627074 -0.47635764 0.27052096 0.1521727
0.21899702 -0.07453279 -0.31285098 0.22562623 0.116896056 0.1522772 -0.23300253 -0.29286006
0.41902658 0.061224703 0.26662746 0.1290559 0.20522523 -0.3213872 -0.20316167 -0.103275016
-0.1371526 0.1327724 0.036995858 0.09063492 -0.44121256 -0.1479084 0.41504654 -0.35161552
-0.11774589 -0.22679146 0.0794639 0.5203672 -0.12241754 0.26032516 0.29123527 0.027699737
0.14082465 0.4177929 0.10215335 -0.38950095 -0.2766897 -0.40323207 -0.2788723 -0.4820145
-0.24699111 -0.12518263 -0.328883 0.04684701 -0.5894053 0.40109006 0.5518477 0.30811533
0.4084403 0.69168544 0.11884368 0.2759612 0.1407463 -0.06509881 0.22607337 0.034975044
-0.119721755 -0.029242653 0.2593185 -0.011678341 -0.26827067 -0.38793367 0.03520256 -0.10040588
-0.06433409 0.06101434 -0.07048436 -0.056648392 0.30035374 0.19408228 -0.07006968 -0.4576323
-0.21816082 0.019788777 -0.31283912 0.10241157 -0.19152462 -0.05671739 0.079349816 0.2841386
-0.135441 0.14562035 -0.2841748 0.7135281 0.22487795 -0.23318936 -0.13366961 -0.07185794
0.19489424 -0.0120917475 0.00993018 -0.18799125 0.54554456 0.07840781 -0.016959084 0.28237453
0.54239565 0.08729857 -0.12725835 -0.45089328 -0.17573924 -0.32274732 -0.26092097 0.35823408
0.6108155 0.0806424 -0.035840042 0.097334765 0.40861535 0.22114936 -0.06654454 -0.36547247
-0.30248013 -0.2588792 0.11403793 -0.17117156 0.6119284 0.11567788 0.32817972 0.5869858

arith.constant5 f4 [64]
00000000: 1634 103f 6969 a83f eee1 5740 aed5 55c0
00000010: f39b 273f e6a9 a6bf d547 4f3e d690 25c0
00000020: cd60 09bf 1ffb de3e 7c19 3a3f 303b 74be
00000030: 8fac a4be 7286 77c0 a6e4 d03f 181e 163f
00000040: 70c3 fcbf 6072 ccbf 2e76 51bf 5753 0840
00000050: 1359 1140 257f 233f 7c2e 1abf aa85 1440
00000060: 2cdf 9cbf 54a0 8d3f 5b30 443f 6d26 d03f
00000070: dc29 e7bf 0056 c840 d9fe 893f 722f 3ac0
00000080: 41b8 493e beca ce3f 8906 adbf 0e51 9f3f
00000090: 3d33 b63f dc48 413f c48a 8d3f 9f6c 3ec0
000000a0: 88b7 8cc0 d0a9 06c0 c282 b0c0 3d3d cb3f
000000b0: b012 cabf 5abc 88bf 573c 8d3f adaa be3e
000000c0: f0f2 bb3e 77b8 123f a96f 233e e2ff 4fbf
000000d0: b9db ec3f c186 0b40 d92b 9c3f 37e8 81bf
000000e0: 249d c53f 5bbe b5c0 d943 ac3f 1351 6d40
000000f0: c5ba bcbf 42db afbe c3ff aa3f c9a2 d03f
0.56329477 1.3157169 3.3731647 -3.341167 0.65472335 -1.3020599 0.20242245 -2.586965
-0.5366333 0.43550965 0.72695136 -0.23850703 -0.32162902 -3.867581 1.6319778 0.5863967
-1.9747143 -1.5972404 -0.8182095 2.1300867 2.2710617 0.6386588 -0.6022718 2.3206582
-1.2255607 1.1064553 0.76636285 1.6261727 -1.805965 6.260498 1.0780898 -2.9091458
0.19699194 1.6155622 -1.3517619 1.2446611 1.4234387 0.755018 1.1057973 -2.9753797
-4.3974037 -2.1041145 -5.5159616 1.5878063 -1.5786953 -1.068248 1.1034039 0.3723959
0.36708784 0.5731272 0.15960564 -0.8124982 1.8504554 2.1800997 1.2200881 -1.0148991
1.543858 -5.6794868 1.3458205 3.7080734 -1.4744498 -0.34346968 1.3359302 1.6299678

arith.constant6 f4 [128]
00000000: 3f08 3abc a3c4 e7bc 1e62 b936 bead b33c
00000010: 5748 f43c 918d a3bc 4c63 63bd b5a8 383b
00000020: 2873 023d cec7 9739 e5f7 69bd 6411 99b8
00000030: 2963 b53c e539 62bc 8492 963b d2d1 933b
00000040: 16ca 5ab9 1791 9436 1b21 ad3c 5a1e f13b
00000050: bbf0 09bd d402 ab3c 5f98 d53c dd05 c4bc
00000060: 869a 783c 1706 d43c a768 32bd d859 9dbc
00000070: 350c c0bc 6a95 d5b8 9ad2 aab8 6527 933b
00000080: 3b55 893a 07b7 a13b e388 d53b bd41 16bc
00000090: ddcd d7bb e967 a9bb fd5f 59b9 2021 e8ba
000000a0: 31b0 18bd 14bc 3b3b b304 8a39 bf22 2a3d
000000b0: ff9e 1239 54a9 f2bb 6057 f339 d09d db3c
000000c0: b18b 79bc b300 953c 6a91 3b3b 14a0 44b9
000000d0: e21a 49bc 20b0 1ab9 58a7 a0bb fd73 b03c
000000e0: fa2e 74bc 0e5f 4dba 01c7 55b9 9b9f b13c
000000f0: 53f7 a4bc de36 7c39 f61b c93b ba81 7d3c
00000100: c8cd 493d 1068 9c3b fcb5 5837 2c4c a53c
00000110: b31a 4d37 8e32 1eb8 f9e1 a1bd bd6a 9139
00000120: 26e8 603b 122f 10bd 1e24 1d3d 2828 24bc
00000130: 5444 82b9 4778 bebc 854e df3c 2dc5 8539
00000140: 80c6 8f37 06a8 a93c bfe3 29bd aa1d 65b9
00000150: d775 0abc f8a4 4a3b a82a 94b9 c623 adba
00000160: e664 27bd 9466 31b8 8bff b0bc b085 dcb9
00000170: 0058 a3b8 1bb0 a5b8 115d dcbc fe41 e2bc
00000180: 3c70 983c f3fc c9bc 269c 4dbc d83c ccbc
00000190: 71ba 1abd f634 44bd 626f 6f38 8517 01bc
000001a0: 45b8 8ebc 3ad2 2a3d 5fa7 a43c 3b97 76bc
000001b0: 51f4 263d 22fc 02bd 5df2 28b9 366f 373c
000001c0: 4e8a 76bc b770 d3bc 8609 e1bb fcb0 56b8
000001d0: 5835 af37 7cfa c9b8 b0d1 f9bc 3212 153d
000001e0: 8c32 cd3c 3d3a 11bb 6968 413c c802 eabc
000001f0: 9a69 a9bc 44dd 9638 c2ff 0eb9 7465 46ba
-0.011354505 -0.028292006 5.524852e-06 0.021933433 0.02981965 -0.019964965 -0.05551462 0.002817673
0.031848103 0.0002894983 -0.057121176 -7.298848e-05 0.02214201 -0.013807748 0.0045951027 0.0045110965
-0.00020865383 4.4276344e-06 0.02113395 0.0073583545 -0.033676844 0.020875372 0.026073633 -0.023928577
0.01517356 0.02588181 -0.043556836 -0.01920788 -0.02344332 -0.00010184462 -8.145459e-05 0.00449078
0.0010477671 0.0049351486 0.0065165623 -0.009170947 -0.00658582 -0.0051698578 -0.00020730491 -0.0017710067
-0.037277404 0.002864604 0.00026324912 0.041537043 0.00013982876 -0.0074054394 0.0004641367 0.02680865
-0.015231059 0.01818881 0.002862061 -0.0001875165 -0.012274476 -0.00014752196 -0.0049027614 0.021539683
-0.014903778 -0.00078342936 -0.00020387398 0.021682551 -0.020137465 0.00024053032 0.0061373664 0.015472824
0.049268514 0.0047731474 1.2916975e-05 0.020177923 1.2225169e-05 -3.771722e-05 -0.07904429 0.0002773608
0.0034318059 -0.03520114 0.038364522 -0.01001934 -0.0002484644 -0.023250712 0.02725912 0.00025514644
1.7139362e-05 0.020710003 -0.04147696 -0.00021850193 -0.008450947 0.0030921083 -0.0002826054 -0.0013209514
-0.04086771 -4.2295622e-05 -0.021606227 -0.00042061275 -7.788837e-05 -7.900615e-05 -0.026899846 -0.027619358
0.018608205 -0.024656748 -0.012549436 -0.024931356 -0.03777546 -0.04790207 5.7085774e-05 -0.007879143
-0.017421851 0.041704394 0.02009934 -0.015050705 0.040760342 -0.031978734 -0.00016112016 0.011195948
-0.015047623 -0.025810583 -0.0068675904 -5.1186405e-05 2.0886466e-05 -9.631083e-05 -0.030495495 0.036394306
0.025048517 -0.0022159957 0.0118046785 -0.02856578 -0.020680238 7.193771e-05 -0.00013637453 -0.0007568218

sequential_42_1/dense_135_1/MatMul f4 [128, 17]
00000000: 2d4c 0e3e 883f a03d d3a6 493e b4e7 a3bc
00000010: 75fa 89bd 82a2 893d 2312 ff3d 7e45 f1bd
00000020: 9e8d 643d e123 263d ccba d4bd 7975 48be
00000030: 9286 f13d 5696 15be 11b0 08be 950b e0bc
00000040: 5bc8 c3bd f0b2 4fbd d05a 203e e935 90bd
00000050: 6d5b 61bd e232 233e 989d f0bd 1d37 5d3d
00000060: 718f 0b3d d011 af3d fad1 69bd 9c82 47bd
00000070: b3e0 8e3d 9f85 40be 53f1 61be 5c1e 17be
00000080: aed5 923d edbf d33d 60d9 323e ba63 b33d
00000090: 233a 1dbe 7c60 34be c0f7 22be b857 b83d
000000a0: 2543 ff3d 45bf 653d 91ca 863d e6e8 febc
000000b0: 4ed7 cebc 4e1f a6bd 407c 7dbd 3de6 46bb
000000c0: c6f3 2bbe 66e8 9b3d af05 33be 51fe 103d
000000d0: a33a 83be 89c6 fdbc d5dd 093e defc e3bc
000000e0: 4fb4 42be 3940 87bd d638 43bd 4f3f 283c
000000f0: 83cb 0d3d e09f 50bd d725 d6bd 00aa 653d
00000100: a660 dc3d 2bfa 493d 0948 b1bc 7d99 933c
00000110: 6b5c 55be faaf 0abe 1eb4 90bd 5d3c aebd
00000120: 3bca fa3d 3600 483d 358a 32bd db1c 24be
00000130: 1e2b f0bc d78e 033e f4a6 14be a271 a23d
00000140: 9203 1cbe 08b1 5fbd 5f90 27be b550 98bd
00000150: 640a e23d 19e2 0a3e 2fce ae3d 3924 8ebb
00000160: a264 2bbe 755f 11bc 7f6d 363d eacb 28be
00000170: 4f2f f93b eb29 c8bb 6f32 48be 7409 20be
00000180: 2bb4 7ebd ae7f abbb ae06 c9bd fe5e fdbc
00000190: 24d6 19bd 673d b6bd 609d 00be 349c 24be
000001a0: 107c 63bd d944 08be 8edc 0d3e 78ef f63a
000001b0: 72ce febd 184c eabd 2339 1a3e 322e e0bd
000001c0: bbab 71bd efd8 16be ea76 bc3d 0d80 0ebe
000001d0: eb92 98bd 7822 b8bd d7e8 8b3c bf74 d9bd
000001e0: 4884 9b3d c14a 133e 6afa 113e cc01 1bbe
000001f0: 7faa f9bc f421 fabd c826 fc3d e55e 2cbe
00000200: 3456 c2bd 5368 88bd 28a7 8ebb 6372 5d3d
00000210: d443 68bd 367e 7cbd e5b1 283e 3e15 203e
00000220: b8a3 75bd 6af0 323e 8cab cc3d 4e59 1ebe
00000230: 3c60 3bbd 0b34 153e 2a3a 04bd 8fa2 17bd
00000240: e217 143e b6a5 c73d 9fd2 11be 4519 e03c
00000250: d1f9 e13d 26bc 023d 2af9 b1bb a3d6 e4bd
00000260: 14f2 693d c507 853d b472 a13d a5c4 07be
00000270: cd3d deba 308d b9bd 235c e63c 2fd7 4bbe
00000280: 95bd c8bd 31af 1cbe fb82 d3bc 7e22 8ebd
00000290: 6c54 873c cead 2a3e 4745 2d3e 780a 1ebe
000002a0: 5bce 16bd 43d1 043e 1d63 09be 983d 00be
000002b0: 6f57 153e a231 f43d 2154 f0bd e40d 7dbd
000002c0: 8bf0 1c3e 8b87 e6bc 3cef 1bbe 4fb9 f8bc
000002d0: 6d03 6d3d 3efe fd3d e9bb a63c fd36 32bd
000002e0: b5be 2c3e e12f a1bd be7e 953d af39 353d
000002f0: c16b 8ebd ddb7 ac3d b7d1 0dbe ccff 00be
00000300: c9b5 b13d c148 26be 9ff3 0abe f1b2 bbbd
00000310: 6681 7f3d 9e92 7b3d 04c0 17bc 62e2 ff3d
00000320: 32e0 e6bb 4ac8 203c 96cb a0bc 3825 1bbe
00000330: 0a5b 7a3c 9663 113e 9b28 26be 9a6a 8cbc
00000340: 30e5 c03d cff1 263e 73b4 c1bd 6148 573c
00000350: f978 023d cad9 fc3d c838 253e 8b79 17be
00000360: 866c dd3d 06fb 253d 0cdd 9b3c 6157 20be
00000370: f8ea 2fbc 85a2 25be 6160 eebd 7698 8f3d
00000380: 136e 77bd db46 f9bc d7e9 82bd 90c9 0a3d
00000390: 677e 15be 2657 8c3d d3e1 133e ad4b 0e3c
000003a0: 34a6 0ebe 8910 593e ea75 5dbd f7ef 733d
000003b0: ad45 c13d a52a 093d 4ec5 98bc e185 383e
000003c0: fe56 b6bd 92d4 30be 3e1c 6abd 3b9e f83c
000003d0: 43d2 4ebe 9a6f b73d 834d bfbd 9777 4abd
000003e0: 401a 5abc 2181 9a3d bf65 23be 3985 813d
000003f0: ed1f 1c3e 58c1 21bd 70d1 8b3d 88b1 25bd
0.13896246 0.078246176 0.19692545 -0.020007946 -0.06737224 0.06720449 0.12454631 -0.11780833
0.05579912 0.04056156 -0.10387191 -0.19576062 0.117932454 -0.1460813 -0.13348414 -0.027349273
-0.09559699 -0.050707757 0.15659642 -0.070415325 -0.05501883 0.15937379 -0.117488086 0.05400764
0.034072343 0.08548319 -0.057085015 -0.048708543 0.06976452 -0.18800972 -0.22064714 -0.14757675
0.071696624 0.10339341 0.17465734 0.08759256 -0.15354209 -0.17614931 -0.15914822 0.09001106
0.12463979 0.056090612 0.06581605 -0.031116914 -0.02524915 -0.0811144 -0.061886072 -0.0030349635
-0.16792211 0.07612686 -0.17482637 0.035398785 -0.25630674 -0.030978458 0.13463528 -0.027830537
-0.19014095 -0.066040464 -0.047661625 0.010269 0.034617912 -0.05093372 -0.10456436 0.056070328
0.10760622 0.049310844 -0.021640794 0.018017525 -0.20836036 -0.13543692 -0.070656046 -0.08507607
0.12245604 0.048828326 -0.043588836 -0.16026632 -0.029317435 0.12847458 -0.14516813 0.0793183
-0.15235737 -0.05461219 -0.16363667 -0.07437269 0.11037138 0.13562812 0.0853542 -0.004337814
-0.16737607 -0.008872856 0.044538017 -0.16484037 0.0076045166 -0.0061085126 -0.19550489 -0.15628606
-0.06218354 -0.0052337265 -0.09815727 -0.030929085 -0.037557736 -0.0889843 -0.12560034 -0.16075212
-0.055538237 -0.13307513 0.13853666 0.0018839678 -0.1244172 -0.11440295 0.15060858 -0.10946311
-0.059001666 -0.14731191 0.092023686 -0.13916035 -0.074498974 -0.089909494 0.0170788 -0.10617971
0.0759359 0.14383985 0.14255682 -0.15137404 -0.030476807 -0.12213507 0.123120844 -0.16833074
-0.09489098 -0.06660523 -0.0043534227 0.054064166 -0.05670531 -0.0616438 0.16474111 0.15633103
-0.059970587 0.17474523 0.099936575 -0.15463755 -0.045746073 0.14570634 -0.032282032 -0.037020262
0.14462236 0.09748404 -0.14240502 0.0273558 0.11033977 0.031917714 -0.005431314 -0.11173751
0.05711563 0.064956225 0.07883206 -0.13258608 -0.0016955674 -0.090601325 0.028120106 -0.19906305
-0.09801785 -0.15301205 -0.025819292 -0.069401726 0.016519748 0.16667864 0.16920958 -0.15433681
-0.03681789 0.12970452 -0.13416715 -0.12523496 0.14584135 0.11923529 -0.11734796 -0.061780825
0.15326135 -0.028140804 -0.1522798 -0.0303618 0.057864595 0.124020085 0.020353274 -0.043509472
0.16869624 -0.0787046 0.07299565 0.044244464 -0.06954146 0.08433507 -0.13849531 -0.12597579
0.08677251 -0.16238691 -0.13569497 -0.0916499 0.062379263 0.061419122 -0.009262089 0.12494351
-0.007045769 0.009813378 -0.019628327 -0.15150917 0.0152804945 0.14198145 -0.16226427 -0.017140675
0.09418714 0.1630318 -0.09458246 0.013139815 0.03185365 0.123462275 0.16134942 -0.14792459
0.10811715 0.040522598 0.019026302 -0.15658332 -0.010737173 -0.16175278 -0.116394766 0.070115015
-0.06040771 -0.030429294 -0.06392258 0.03388363 -0.14599 0.0685256 0.14441614 0.008685035
-0.13930589 0.21197714 -0.05406753 0.05955502 0.09437118 0.033487935 -0.01864877 0.18019821
-0.08903311 -0.17268589 -0.05715584 0.030348888 -0.20197396 0.08956833 -0.09340956 -0.049430456
-0.013311923 0.07544161 -0.15956782 0.06324238 0.15246554 -0.039491028 0.068270564 -0.04045251
