Model/Models/final_model.tflite (tflite, 54264 bytes, 8 tensors)

arith.constant f4 [6, 32]
000000 bb 71 07 be 15 2c 0e 3e d6 20 ff 3d 96 af c0 be
       -0.13226978 0.13884003 0.12457435 -0.3763396
000010 f4 60 b0 3c be c0 a3 be 94 39 8d 3e 7f fa d2 be
       0.021530606 -0.31982988 0.2758299 -0.41206738
000020 79 b8 ba 3e ef b1 1c be 66 d0 ec be 04 f7 c4 bd
       0.36468866 -0.15302251 -0.46252745 -0.09617427
000030 34 6d be 3c 0a 7e 8b be 9d 94 29 3e bc c5 3b 3d
       0.023245431 -0.27244598 0.16560598 0.04584287
000040 3f a4 a0 be 9c 38 c9 3e c0 95 9c 3e fb 42 61 be
       -0.3137531 0.39301002 0.30583 -0.21998207
000050 e1 d9 81 3e 1a ae cc be 09 1e c1 3e 41 79 48 be
       0.2536154 -0.3997658 0.37718228 -0.19577505
000060 af a7 cf be ec da 99 be 5a 89 d8 be de ff de 3e
       -0.4055762 -0.30049837 -0.4229229 0.43554586
000070 b0 bf 67 3e a0 7c 60 3e 1f fd 0a be 5e 1c 25 3e
       0.22631717 0.2192254 -0.1357312 0.16124102
000080 31 67 b7 be b3 27 ca 3e bd 70 4b 3e 9e ab 69 be
       -0.35820916 0.39483413 0.19867225 -0.22819373
000090 e3 45 f2 bc bd 0f 32 be 80 f1 be 38 8c 1d 8f bd
       -0.02957434 -0.17388816 9.104889e-05 -0.069880575
0000a0 9f 27 69 3e 25 38 7f bd f0 8b a3 be 83 f4 9c be
       0.2276902 -0.062309403 -0.319427 -0.30655298
0000b0 cf da 9f be f9 0b 02 bc e2 a8 d9 3e 2d c8 a9 3e
       -0.31221625 -0.007937425 0.4251166 0.33160535
0000c0 11 f7 03 3d 6b 86 a7 3e cf e9 91 3e 1f 3b c6 be
       0.032218043 0.3271974 0.28498694 -0.3871698
0000d0 4a 25 61 bd 9c a4 85 be 06 5e a3 3e f4 43 04 be
       -0.054967202 -0.2610215 0.31907672 -0.12916547
0000e0 c9 ee 80 be 4e b3 5c be 8f 64 d0 be de fa b0 3e
       -0.2518218 -0.21552774 -0.4070172 0.34566396
0000f0 bf 13 61 3e 4d 66 f2 bc c7 35 fa bc 5e b3 c0 3e
       0.21980189 -0.029589796 -0.030543221 0.37636846
000100 ee ab c6 be e5 0d ea 3c b8 7f 83 3e f0 9f 93 bd
       -0.38803047 0.028571079 0.2568338 -0.0720824
000110 d7 04 a5 3e e1 9c 8b be e2 a2 32 3e 45 a8 05 bd
       0.32230255 -0.27268127 0.17444947 -0.032631177
000120 98 56 22 3e d3 9a 8d be 63 b4 92 be 86 46 32 be
       0.15853345 -0.27657184 -0.2865325 -0.17409715
000130 36 4c 22 bd e4 86 a0 bd c3 2a 36 3e 58 c7 73 3d
       -0.03962346 -0.07838228 0.1778975 0.05951628
000140 71 e4 27 bd 68 0c 4a 3e 85 b3 a6 3d 13 81 d1 be
       -0.040989343 0.19731295 0.081397094 -0.40918788
000150 84 80 88 3e dd 20 05 3c f7 82 1b 3e 9f 4e 84 be
       0.2666055 0.008125511 0.15186678 -0.25841233
000160 12 41 03 be 56 78 d4 ba 21 46 14 be 0c 2b b3 3e
       -0.12817791 -0.0016210179 -0.14479877 0.3499378
000170 50 31 91 bc 59 3b 02 3e 84 90 cc 3d d3 56 61 3d
       -0.01772371 0.12717952 0.09988502 0.055014443
000180 32 86 5f be 0f d6 af 3e a9 e1 b7 3e 58 18 a5 bd
       -0.21828535 0.34343 0.35914353 -0.08061284
000190 78 27 bd 3e 67 22 96 be a2 ff aa 3e e9 02 c7 3b
       0.36944175 -0.29323122 0.33398157 0.006073345
0001a0 41 37 47 bd 42 8d 4e be 31 44 99 be c9 88 c3 be
       -0.04863668 -0.20171073 -0.29934838 -0.38190296
0001b0 79 39 ba be 26 92 ea bd 4a 6e ec 3e 37 08 b9 3e
       -0.36371973 -0.11453657 0.46177894 0.3613908
0001c0 8f 2e 8d be 66 75 22 3e d4 62 c0 3e 89 5a fd 3c
       -0.27574584 0.15865096 0.375754 0.03092696
0001d0 22 b6 82 bd 39 fb 62 3c 5e aa b0 3e 4b 13 ac be
       -0.06382395 0.013853841 0.3450498 -0.3360847
0001e0 be ee 76 be 6c 4e 8a be 22 20 e0 bd aa fe b7 3e
       -0.2411451 -0.27012956 -0.10943629 0.3593648
0001f0 96 3f 96 3e 9e 60 c2 3e 64 c0 45 be 88 53 cd 3e
       0.29345387 0.37964338 -0.19311672 0.40102792
000200 66 f9 5b be 95 0f 88 3d e5 14 86 3c 07 08 71 be
       -0.21481857 0.06643597 0.016367385 -0.23538218
000210 10 a1 60 3e 07 af 08 bd bc 54 48 3e 27 43 63 be
       0.2193644 -0.033370044 0.19563574 -0.22193585
000220 71 e0 b4 3e c1 ed 75 be d7 70 dd 3c 0f 70 1c 3c
       0.35327485 -0.24016477 0.027031345 0.009548201
000230 69 13 59 be 00 40 9d be f0 e0 b9 bc 52 2d 47 3e
       -0.2119881 -0.3071289 -0.022690266 0.19450882
000240 79 dc 94 bd 78 8f 42 3e 58 87 46 3e 3f 8f a2 be
       -0.07268614 0.19000041 0.19387567 -0.31749913
000250 31 71 90 3e 44 e4 77 be 69 a3 70 3e 1e 6c 39 be
       0.28211358 -0.2420817 0.23499836 -0.1810765
000260 20 96 0b bd 70 b7 38 be 65 fc 5a 3d 70 db 47 3e
       -0.034078717 -0.18038726 0.05346336 0.19517303
000270 13 35 95 3e 42 87 ba 3e ba 01 96 be 3b 84 18 3e
       0.29142055 0.3643132 -0.29298192 0.14894192
000280 30 98 9f bd aa 9a d7 3e 49 88 ae 3e fc 42 b2 be
       -0.07792699 0.42110187 0.34088352 -0.3481673
000290 fe cf a0 3e 1c 66 b9 be a1 ac 32 3e 7b dc 87 be
       0.31408685 -0.36210716 0.17448665 -0.265354
0002a0 35 a7 ee 3c 56 24 6f 3d e6 b5 b8 be f3 5d b4 be
       0.029132465 0.058384262 -0.36076277 -0.35227928
0002b0 c3 fe 8d 3c 63 24 86 be cd 82 c6 3e 48 d5 28 3e
       0.017333394 -0.26199636 0.38771668 0.1648761
0002c0 09 6b db be fc 31 ad 3c 9a 4f 52 3d 3c 98 2c bd
       -0.428551 0.021141998 0.051345445 -0.04213737
0002d0 a5 e0 86 3e a5 b3 3d be 1f 5a 20 3e a1 27 aa be
       0.26343265 -0.1852556 0.15659378 -0.3323336
0002e0 2f 32 8b be 46 f6 b9 be 10 a7 6d 3c 8d bd 42 3e
       -0.27186725 -0.36320704 0.014505163 0.1901762
0002f0 a8 9a 14 3e bf 00 5b 3e 84 cd 7f be 98 9e 89 bd
       0.14512122 0.21387003 -0.24980742 -0.067197025

arith.constant1 f4 [6]
000000 00 91 80 40 19 e0 41 40 ae 99 0a 40 e2 d3 39 40
       4.0177 3.0293028 2.1656299 2.9035573
000010 9f f9 23 40 ff 48 54 40
       2.5621107 3.3169553

arith.constant2 f4 [32, 64]
000000 91 d9 22 3e 96 bf 7d 3e 12 25 17 be 73 21 05 be
       0.15903307 0.24780115 -0.14760235 -0.13001041
000010 86 e4 2e bc 07 61 c4 bc ab ca 05 be 47 f4 2b bd
       -0.010674601 -0.023972047 -0.13065593 -0.041981008
000020 1e 37 5b bd 6b d6 01 3e 93 15 29 be 88 d2 6c bd
       -0.05351936 0.1267945 -0.16512136 -0.057817966
000030 7c 54 30 3d 28 ad 4b 3d 4f d2 6d bd a3 98 0e 3e
       0.04304932 0.04972568 -0.058061894 0.13925414
000040 b1 09 23 be 09 34 44 3e b7 07 6c be 12 e9 a2 bd
       -0.15921666 0.19160475 -0.23049818 -0.07954611
000050 f1 d6 07 3e a8 67 33 be 96 f8 c7 bc c6 93 47 3e
       0.13265587 -0.1752001 -0.024410527 0.19489965
000060 81 75 30 be 04 06 00 be 71 f7 8b bd 59 58 5b 3d
       -0.17232324 -0.12502295 -0.06834305 0.05355105
000070 44 ad 12 3e fb 77 1a 3c 91 97 bc bd 30 87 02 bd
       0.14323908 0.00942802 -0.092085965 -0.031867206
000080 b7 fe 87 bc 09 32 e6 3d 27 0f c8 3c c3 f3 d4 bc
       -0.01660095 0.11240012 0.024421288 -0.02599514
000090 ed f8 d7 3c 31 61 29 be 28 d0 39 3d 85 5c 0a be
       0.026363814 -0.16540982 0.04536453 -0.13511856
0000a0 ca 7f dc 39 3c 14 8d 3d d1 92 5f be dd 29 5f 3d
       0.0004205688 0.06888625 -0.2183335 0.054483283
0000b0 80 f0 f6 3d be 7d b4 bd f6 9e 46 be 68 8a 08 be
       0.120575905 -0.08813046 -0.19396576 -0.13334048
0000c0 15 38 5f 3d e0 5a 33 3e 5d cd 16 3e 90 c4 35 bc
       0.054496843 0.17515135 0.14726777 -0.011094227
0000d0 5d c5 9a 3d 46 9b b3 3d 5f 98 42 bd 6b ec f9 bc
       0.07557175 0.087698504 -0.047508594 -0.03050824
0000e0 a6 85 66 3e ae a8 3e bd 8a 0f d7 bd b7 7e 51 be
       0.2251192 -0.046547584 -0.10501011 -0.20458494
0000f0 8a c0 8d 3d d5 27 0e bc 43 05 15 be fd b5 d9 3c
       0.069214895 -0.008676489 -0.14552788 0.026576037
000100 75 b0 9e 3c 53 d7 b4 3d 33 62 94 bb de a0 1f be
       0.01937125 0.08830132 -0.004528308 -0.1558871
000110 be c6 c5 bd 68 f8 09 be 01 fd 25 be d6 6d 48 3e
       -0.09657048 -0.13473666 -0.16209795 0.19573149
000120 55 e6 1c 3e 9d e3 56 3e f7 e4 4a be 63 c0 13 be
       0.1532224 0.20985265 -0.19813906 -0.14428858
000130 80 13 09 be 17 95 f9 3d b4 be ca bd a2 0d 7f bd
       -0.13386345 0.1218664 -0.09899655 -0.06226886
000140 61 cd 5f be c8 38 10 be 1a c6 b7 3d 3d 85 ea bd
       -0.2185569 -0.1408416 0.08973332 -0.114511944
000150 82 f6 91 3c 57 d2 03 be f9 f2 b1 bd 84 2c 3e be
       0.01781774 -0.12873207 -0.086889215 -0.18571669
000160 e8 00 94 bd 37 ae 59 be c4 02 27 3e bc 35 0f be
       -0.07226735 -0.21257864 0.16309649 -0.13985342
000170 0e 4e 92 3d 41 0e 81 3c 89 19 92 bc b0 25 60 3e
       0.07143794 0.015753867 -0.017834442 0.21889377
000180 df 30 8c 3d 63 a8 de bd 6a 32 d7 3d 44 07 49 be
       0.06845259 -0.10871961 0.105076626 -0.19631678
000190 80 7b 3a be bd d0 83 3d 2b 30 a3 bd ed e2 f3 3d
       -0.18211174 0.06436298 -0.07968172 0.11908517
0001a0 1a 17 8b bc b2 ad a7 bd ce 85 12 be 6f 0a 7f 3d
       -0.01697879 -0.081874266 -0.14308855 0.06226581
0001b0 75 5a c7 3c 33 53 b0 3d 59 2f 69 bd a3 30 9c 3d
       0.024335125 0.08609619 -0.05692992 0.07626464
0001c0 df 40 e4 3d 5a 72 f6 3d bb 75 a1 3c 6e ff 90 bd
       0.11145186 0.120335296 0.019709459 -0.07079969
0001d0 db 00 5f be 63 c8 ec bc 8b 5b eb bd cd 92 d5 bd
       -0.2177767 -0.028904146 -0.1149207 -0.10428391
0001e0 38 e1 22 be 97 dc a2 bd fd 7f 5e 3d bd 18 1a 3e
       -0.15906227 -0.079522304 0.054321278 0.150485
0001f0 31 cc 4f 3e cc a3 1b be 0a cc cf bd 98 05 bf 3d
       0.20292737 -0.15199202 -0.10146339 0.09327239
000200 69 09 9f bb 9d 5c d2 3d 1e ac 22 3c 2d de 26 3e
       -0.0048534167 0.10271571 0.009928731 0.16295691
000210 55 14 11 be 29 81 29 be 81 26 2a bd 95 5a e3 bd
       -0.14167912 -0.16553177 -0.041540626 -0.111012615
000220 56 6f 17 be 86 d2 97 bd f1 bf 03 3e 49 6c c7 bc
       -0.14788565 -0.07413201 0.12866189 -0.024343627
000230 13 7a 23 3e a0 21 3d be 2f a7 52 3e 4c 32 3b bc
       0.15964536 -0.18469858 0.20571588 -0.011425566
000240 19 f8 5c be 45 b9 6f be a1 c9 64 bd 66 74 e0 bd
       -0.21579017 -0.23410518 -0.05585635 -0.10959701
000250 2f f0 61 3d bb 1b c8 3d 7c 91 50 3e 91 6d 4c 3e
       0.055160698 0.09770914 0.20367998 0.19963671
000260 56 a6 82 bd ac d8 1a 3d fe ba 5b be f8 1f cd bd
       -0.06379382 0.03780429 -0.2145805 -0.10015863
000270 03 99 ff bd b9 20 1b 3e 62 59 c9 3d b8 f1 9a 3d
       -0.124803565 0.15149201 0.098315015 0.075656354
000280 4a 4c bd bd 75 63 69 bd c3 d7 08 be 8c cd 63 3e
       -0.092430666 -0.056979615 -0.13363557 0.22246379
000290 30 7a 6a 3c b8 72 e1 3b 3c 74 2e be f6 2e ce bd
       0.014311358 0.0068801306 -0.17036527 -0.10067551
0002a0 ce 09 f2 3d e8 07 a4 bc 07 02 15 bd 9f 93 18 bd
       0.11818276 -0.020023301 -0.036378887 -0.037250157
0002b0 1a a6 e8 3d 9c b0 07 3e 9e 2a 0b be d0 2f 42 3e
       0.11359806 0.13250965 -0.13590476 0.18963552
0002c0 86 0a 09 3d 0d 90 34 bd ce a0 42 be 46 ef b7 3d
       0.0334573 -0.04408269 -0.19006655 0.08981185
0002d0 63 a9 66 3e 5a 13 ac 3d f7 33 41 bd c5 df 29 3e
       0.22525553 0.084021285 -0.0471687 0.16589268
0002e0 2b 49 ec bc 80 72 cf bd c4 8f fd bc 17 0a 0f 3d
       -0.028843483 -0.10129261 -0.030952342 0.03492173
0002f0 99 a4 87 3d 4c ac bb bd 9e 6b 02 be 38 91 11 3e
       0.066231914 -0.091637224 -0.12736365 0.14215553
000300 f1 3b c6 bd 45 2a 24 bd 1c 51 0d 3e 92 40 6a 3e
       -0.09679402 -0.040079374 0.13800472 0.22876194
000310 a7 82 44 be 65 d4 01 3e a0 15 36 be b6 93 ab 3d
       -0.19190465 0.12678678 -0.17781687 0.08377783
000320 35 2c 35 be 82 15 37 3c 18 38 50 be 02 f4 9e 3c
       -0.17692645 0.011174561 -0.20333898 0.019403461
000330 6e 83 22 3e d9 2e 37 be e9 76 78 3d 68 e2 01 3d
       0.15870449 -0.17888965 0.060660277 0.03171006
000340 90 f5 0c be 0e 1e f9 3c ef d4 81 bd e8 e9 1f be
       -0.1376555 0.030409839 -0.06339442 -0.15616572
000350 7d c9 0f 3e 76 59 39 3e ce 64 0a 3e b7 b0 8c bc
       0.14041705 0.18100533 0.13515016 -0.017174108
000360 6b cf 2c 3e d8 aa 8a 3c e9 7a 10 3e 51 d5 b1 3d
       0.16875999 0.016927168 0.14109387 0.08683265
000370 be ef b1 3c 75 85 73 39 08 4a 1d 3e 4e 9c cc bd
       0.021720763 0.00023224003 0.15360272 -0.0999075
000380 19 89 80 bd 2c a3 96 3d 09 3b 58 bd 82 38 87 3d
       -0.06276149 0.07355341 -0.052790675 0.06602575
000390 84 a0 dd bb da 0b 14 be 26 e1 4f 3d b8 68 25 3e
       -0.0067635197 -0.14457646 0.050751828 0.16153228
0003a0 51 26 1a 3e b4 0f b6 3d eb 1f 9b 3d 9d 27 28 bd
       0.15053679 0.08889714 0.07574447 -0.041053403
0003b0 ab 22 2d be 2a 0b fb bc e4 55 a7 3c 29 e4 32 3d
       -0.16907756 -0.030644972 0.020426698 0.04367462
0003c0 20 02 d3 bd d9 8f f3 3d d2 3a 20 bd 22 f1 d5 3d
       -0.1030314 0.11892671 -0.039118595 0.10446383
0003d0 d2 32 46 be 54 2a b3 bd cf ed 6c 3d 5e 81 68 3c
       -0.19355324 -0.08748308 0.05784398 0.014191
0003e0 ad aa 29 3e 58 38 0f 3d 89 cd 96 3d 44 23 45 3d
       0.16569014 0.034965843 0.073634215 0.048129335
0003f0 7d e4 28 be 9d 78 94 bc 0f c8 14 be 07 f5 65 be
       -0.16493411 -0.01812392 -0.14529441 -0.22456752

arith.constant3 f4 [32]
000000 10 41 e0 3e 49 ac 44 3f de 6a 06 3e 82 81 cd bd
       0.4379964 0.76825386 0.13126704 -0.10034467
000010 2a a7 11 be f2 ab 0b 3f 9d 61 ff 3d ac ce 26 3f
       -0.14223924 0.5455924 0.1246979 0.65159106
000020 3e 50 d1 3e 61 ee c8 3d 1c f8 81 be e7 06 0b 3f
       0.40881532 0.09811092 -0.25384605 0.5430741
000030 04 80 1c 3c 5a 59 34 3e 53 cf 8d 3e d3 05 36 3f
       0.009552006 0.1761221 0.27697238 0.7110264
000040 ac fb a9 be b8 df 05 bf d9 39 a7 3e 3a 3c 21 3f
       -0.33199823 -0.5229449 0.32661322 0.62982523
000050 81 b6 77 3d fc 08 02 bf 40 a2 8d be 8c 39 ed 3e
       0.060476784 -0.5079496 -0.2766285 0.46332967
000060 90 4b ea be e0 b4 38 be b4 4e 61 be be 10 c3 3d
       -0.45760775 -0.18037748 -0.22002679 0.09524678
000070 af b0 d9 be ac f6 84 3d df 16 45 3e ca e1 35 3e
       -0.4251761 0.064923614 0.19247006 0.17761913

arith.constant4 f4 [64, 128]
000000 db 61 af be a0 ff ae 3d 8d 1a 7f be 2a e0 44 be
       -0.34254345 0.0854485 -0.24912472 -0.19226137
000010 1e de 89 3e 8a a0 9d be 8e 9c 07 bd 00 2e 5b bc
       0.26927274 -0.30786544 -0.033108287 -0.0133776665
000020 2b a2 3b 3e 1a d4 1b 3e 43 fc 2e 3e 7d c6 18 be
       0.18323581 0.15217629 0.17088418 -0.14919467
000030 4c a3 87 be 8d 31 d0 bd 92 f3 91 3e 61 98 a8 bd
       -0.26491773 -0.10165701 0.28506142 -0.08232189
000040 4f a5 be be 8c 8a a0 3d b0 c7 00 3d 9a dc b5 3e
       -0.37235495 0.07838926 0.031440437 0.35519868
000050 55 7e 45 3d b5 40 49 3e fc 20 d0 be f5 6e 03 3d
       0.048216183 0.1965359 -0.40650165 0.03208824
000060 41 b0 8d 3e 5e 52 49 bd 11 1c 05 bf bc de a7 be
       0.27673534 -0.049150817 -0.5199595 -0.3278712
000070 b3 47 60 be 88 c9 66 be 33 f2 6d be 6e f0 f6 bd
       -0.21902351 -0.22537816 -0.23236923 -0.12057577
000080 87 dd 41 3e 68 58 2a 3e b1 70 00 bf c3 2b 55 3c
       0.18932162 0.16635287 -0.50171953 0.013010922
000090 e4 5d 8f 3e f5 c6 a8 3e b7 f0 ad 3e 64 36 02 bf
       0.2800132 0.32964292 0.33972713 -0.50864244
0000a0 e6 a7 3a 3e 17 23 4f 3e 69 86 a0 be da f9 99 bd
       0.1822811 0.2022823 -0.31352547 -0.075183585
0000b0 99 f4 8e be 35 70 1a 3d 68 66 80 be 27 59 79 3e
       -0.27920988 0.037704665 -0.2507813 0.24350415
0000c0 f8 95 32 be 69 ab 97 be d6 03 da bc 18 33 1a be
       -0.17440021 -0.29622963 -0.026613157 -0.15058553
0000d0 56 3e ad be 89 97 b2 be 17 02 b3 3e 4c 11 77 3e
       -0.3383662 -0.34881237 0.34962532 0.24127692
0000e0 91 0b 48 be ae 55 75 3e d4 9f 8c 3e be 97 7a 3e
       -0.19535662 0.23958465 0.2746569 0.24471948
0000f0 df 59 68 be 10 8d 2e be da ac 8c bc 84 67 81 3e
       -0.22690533 -0.17045999 -0.017172266 0.2527429
000100 a0 99 61 3e dc 10 49 bd 7c 7b 97 3e 56 7c c9 be
       0.2203126 -0.049088344 0.295864 -0.39352673
000110 50 99 62 bd 5e 9f 5a 3c 1f ff 15 be b6 5a d7 3e
       -0.05532199 0.01334366 -0.14648102 0.42061394
000120 00 c1 80 bd c2 14 5d bd 68 69 ab bd fe 92 71 3e
       -0.06286812 -0.053974874 -0.08369714 0.2359123
000130 86 77 a4 3e 64 df 42 3e 98 57 d6 be f9 b2 0d be
       0.3212244 0.1903053 -0.41863704 -0.13837804
000140 ef 9c e0 bc de f8 ac 3d 8b 3c bd bd 33 d4 04 be
       -0.027418582 0.08445905 -0.09240063 -0.12971573
000150 f7 5f b0 be b8 88 51 3e 76 35 11 3e ac 4c 29 3e
       -0.34448215 0.2046231 0.1418055 0.16533154
000160 e9 24 40 3e 6c a8 01 bf 6c af 52 3c 2f 28 6c bd
       0.1876408 -0.50647616 0.012859207 -0.05765551
000170 57 7f 74 3e 65 e8 9f bd 7b 2f 99 3e f3 c8 94 be
       0.23876701 -0.078079976 0.29919037 -0.29059562
000180 97 ab e2 3d 32 e2 8d be d0 4d 83 3e 6f 35 ac 3e
       0.110678844 -0.27711636 0.25645304 0.33634517
000190 38 ea cd bd 43 41 69 3d 3b 15 13 bf b9 13 27 be
       -0.10054439 0.056947004 -0.5745427 -0.16316117
0001a0 4b df 13 bd 76 df eb be 65 2d 8a be f7 73 09 3e
       -0.03610162 -0.46068925 -0.26987758 0.13423143
0001b0 96 b2 94 3e 6b 9b a8 bd a9 cb 1f bd 99 e7 58 be
       0.290425 -0.082327686 -0.039012585 -0.21182097
0001c0 51 e6 c4 bc f4 f7 ba 3e 7b 0c 11 3f 86 24 4a 3c
       -0.024035605 0.36517298 0.5665967 0.012337809
0001d0 74 fc 40 3a c7 76 81 3e 0d 64 91 3e 67 d4 72 3e
       0.0007361837 0.25285932 0.28396645 0.23713838
0001e0 91 d5 a5 be fd e2 de bd c3 59 af be 0d d5 92 3d
       -0.323895 -0.10883138 -0.3424817 0.071695425
0001f0 de 29 3a 3d 0c 3c 00 be c3 87 d2 3d 8e fb 1e be
       0.045450084 -0.12522906 0.10279801 -0.15525648
000200 40 8b 09 be 5d 98 42 3e 80 ff e5 bd 40 60 97 be
       -0.13432026 0.19003434 -0.112303734 -0.2956562
000210 f9 4e 7c 3e d9 97 a1 be 0f 4b d1 3e 42 a2 21 be
       0.246395 -0.31561163 0.40877578 -0.15784553
000220 de 5d 00 3e 84 c7 12 be 36 6a 5e be f1 2f 5c bc
       0.12535807 -0.14333922 -0.21720204 -0.0134391645
000230 07 71 0c be 4a 63 9c 3d 72 fa 97 be 11 4a 5d 3d
       -0.13714992 0.076361254 -0.29683262 0.054025713
000240 16 24 f7 be 78 23 40 3e 54 f2 85 3c 75 84 2a be
       -0.4826972 0.1876353 0.016350903 -0.16652091
000250 58 ca 0b 3e 6e 0a a5 be 7d 37 df 3e 39 f5 0e 3d
       0.13651407 -0.3223452 0.43597022 0.03490183
000260 60 e9 28 3e 24 8e 6b 3e ca 3b 41 be 9e 4f 61 3e
       0.16495275 0.23003441 -0.18870464 0.22003028
000270 be 6c 01 bc fc 1c bb be 2a 41 0f bd b0 5b 5a 3e
       -0.007899461 -0.3654555 -0.034974255 0.21324039
000280 92 06 99 bc 4b e9 a3 3e 9d c6 38 be 36 b2 27 3e
       -0.01867989 0.32013926 -0.18044515 0.16376576
000290 d8 a5 b7 3d 0b f0 64 be be a0 ca 3e 02 12 b5 be
       0.08967179 -0.22357194 0.39575762 -0.353653
0002a0 43 05 1c bd 98 17 aa 3c 19 25 ae bd 97 4d 49 3e
       -0.038090955 0.020763204 -0.085031696 0.19658504
0002b0 4f dc b5 bb ea 57 ec ba 9f 29 f4 3d f3 ae 55 be
       -0.0055499445 -0.0018031572 0.11922001 -0.20867519
0002c0 a0 fe 4f be f9 3b f9 3d cf 76 3a be 85 45 15 3e
       -0.20311975 0.12169642 -0.18209384 0.14577301
0002d0 83 02 90 be 01 ee 24 be 33 f4 02 be fc 9d d5 be
       -0.28126916 -0.16106416 -0.12788467 -0.41722095
0002e0 ab bd 83 bd f8 cf a1 3d 60 d7 df be 5e 9f c6 be
       -0.06432661 0.07900995 -0.43719006 -0.38793463
0002f0 03 c1 0a 3e d2 3b 38 3e 8b 4a 81 3e 62 b8 6b 3e
       0.1355019 0.1799157 0.25252184 0.23019555
000300 cb 6c b7 bd e0 c0 97 bc d1 3b e8 3d cd 4b 8b bd
       -0.089562975 -0.018524587 0.11339534 -0.06801567
000310 87 87 00 bd 05 9e 40 be 10 6f 4a 3e 5f cc b5 3e
       -0.03137925 -0.1881028 0.1976893 0.35507485
000320 7c 1e 2c 3e eb 75 b0 3e cb 98 b2 bd e9 0e d9 be
       0.16808504 0.34464964 -0.08720549 -0.42394188
000330 61 cf d0 be 3b 6e cf be 90 e8 71 be 12 d8 94 bc
       -0.40783218 -0.40513787 -0.23623872 -0.018169437
000340 fd 5d 8a 3e 13 0e a8 3d 51 40 af 3d 1d d4 1e 3e
       0.27024832 0.082058094 0.08557189 0.15510602
000350 60 1c 10 3e 3f 86 46 be 31 80 82 bd 50 50 ed bd
       0.14073324 -0.19387148 -0.06372107 -0.11587584
000360 8b 5b 3c be f4 60 56 3e 74 7c 6e be 75 fd 4e be
       -0.18394296 0.20935422 -0.23289663 -0.20213874
000370 e8 42 a2 be 6e 1e 78 be 1d 70 00 3e 6d 40 ba be
       -0.3169167 -0.24230358 0.12542768 -0.36377278
000380 bd 58 73 bd 19 5d 40 3e 52 0f 48 3e 3a 26 9b be
       -0.0594108 0.18785514 0.19537094 -0.30302602
000390 2c 28 81 be 6f c1 8d be 4e 10 a4 3d 7a 00 6e 3d
       -0.2522596 -0.2768664 0.08010922 0.058105923
0003a0 7c c3 85 3d 4a a8 d7 3d 47 62 d0 be e5 52 3f bc
       0.06531426 0.105301455 -0.4069998 -0.011677478
0003b0 b6 6d 16 be 2b f2 34 be 42 f7 50 be 15 80 9b be
       -0.14690289 -0.17670505 -0.20406821 -0.30371156
0003c0 89 49 06 bf b3 8a b7 be 9f 76 b0 be 1f 6a b5 3e
       -0.52455956 -0.35848007 -0.344655 0.35432526
0003d0 89 a6 80 3e 87 02 a5 be 5a 02 e0 bd 14 44 d0 be
       0.25127056 -0.3222849 -0.109379485 -0.4067694
0003e0 02 d9 0f bf f5 9e 9d 3d 06 4a c8 bb d5 32 90 be
       -0.561905 0.07696334 -0.00611234 -0.28163782
0003f0 c2 cc 0d 3e 2e 5e 4c be 91 0f e6 3e 8e 4a 7e 3e
       0.1384764 -0.19957802 0.4493375 0.24833128

arith.constant5 f4 [64]
000000 e3 9f 4f 3e 7e 94 dc 3e 5e d2 be 3d e4 88 08 3f
       0.20275836 0.4308204 0.09317468 0.5333388
000010 d6 69 70 be 45 c1 a5 3e 97 35 ec be ea 3f 32 3e
       -0.23477873 0.32374015 -0.46134636 0.17407194
000020 72 29 2b bd db 80 92 3c 56 26 41 bf 5d e5 7f be
       -0.041787572 0.017883709 -0.7544912 -0.24989839
000030 00 5f 00 3f b4 51 b9 3e 95 13 09 be 2d 82 c5 3e
       0.5014496 0.36195147 -0.13386376 0.3857588
000040 23 c6 5e be 55 65 d9 3d a3 fd f2 be a5 19 48 be
       -0.2175527 0.10615031 -0.47459134 -0.19541033
000050 83 78 93 3e 67 d5 27 3e f8 91 f5 bd 8e 37 dd 3e
       0.2880288 0.1639 -0.11990732 0.43206447
000060 9c c8 77 3e 51 21 5e 3d ca f0 be 3e e8 8f 34 3e
       0.2419762 0.05423099 0.37293082 0.17633021
000070 f3 25 3f bf 01 8e bc 3e b3 31 08 bf ae 37 40 bd
       -0.7466728 0.3682709 -0.53200835 -0.0469281
000080 c8 f2 c3 be 8b 53 11 3d 24 d3 15 3e 40 91 2b 3f
       -0.38271165 0.035480063 0.14631325 0.6701851
000090 2b 43 6e 3d e6 4a 03 bf ad 42 b1 be 45 f0 63 bf
       0.058169525 -0.5128616 -0.34621182 -0.890385
0000a0 46 5d 9b 3c 63 28 07 be 0d 2f f6 be e1 77 79 be
       0.018965375 -0.13199 -0.48082772 -0.24362136
0000b0 f9 ad 97 be 1d 87 85 be 02 37 c5 bd fc fb c3 3e
       -0.29624918 -0.26079646 -0.096296325 0.38278186
0000c0 cf d7 3c be 9b d4 ea 3e 06 ad ec bd 3f d2 91 3e
       -0.184417 0.4586533 -0.11556439 0.28480718
0000d0 ad ef df bd ba 14 61 3a bb e6 99 3e af 7f 9c 3e
       -0.109343864 0.00085861573 0.30058846 0.30566165
0000e0 e9 ad b6 bd df 10 6c 3e 73 de 3f be a6 02 ef bd
       -0.089198895 0.23053311 -0.18737201 -0.11670427
0000f0 85 d5 b3 3e 7b fe 71 bd b3 c6 5f be 87 6d b9 be
       0.3512384 -0.059080582 -0.21853141 -0.36216375

arith.constant6 f4 [128]
000000 fc 97 2e bd d5 d4 b3 3c 81 a9 a6 3b 89 af a7 3b
       -0.042625412 0.021952072 0.0050861244 0.005117361
000010 08 ef fe bc c4 28 ce bd d5 67 bb bd 8c 22 1c 3d
       -0.031119838 -0.10066369 -0.09150664 0.038118884
000020 5b 59 6d 3d ad 5b 0c 3b 6f 36 23 bd 39 66 2d 3d
       0.057946544 0.0021416948 -0.039846834 0.042333815
000030 39 7f 99 bc 22 a7 ef 3c 49 50 7f bc dc a0 eb 3b
       -0.018737422 0.0292545 -0.015583106 0.007190807
000040 40 d4 42 bc f4 3c 30 bc e6 c4 61 bd d3 09 82 bc
       -0.011891425 -0.01075672 -0.055119418 -0.015873825
000050 55 6e 1e bd 1c 1d af bc f2 66 07 bd 26 aa 89 3c
       -0.03867944 -0.021376185 -0.03305716 0.016804766
000060 7b 52 f9 3a 87 61 db 3c 89 90 80 bc aa 45 07 bd
       0.0019021773 0.026779903 -0.01569392 -0.03302542
000070 20 1e 8c bd 0d 21 1c 3d 1a 58 a5 bc 90 f3 c5 bc
       -0.068416834 0.038117457 -0.020183612 -0.024163991
000080 46 fc db bb 74 99 fa bc 9a 64 7e bc 85 eb 1d bd
       -0.006713423 -0.03059075 -0.015526915 -0.038554687
000090 9a 24 4d bd b4 08 4c 3d 92 0b 04 bd 68 df b8 bc
       -0.050083734 0.049812987 -0.032237597 -0.022567466
0000a0 ec d0 61 3a 92 53 02 bd 28 ca e6 bc 8e 0a 1c bd
       0.00086142006 -0.03181798 -0.028172567 -0.038096003
0000b0 13 4e 50 3d 96 6b 83 bc a8 c3 f0 bc b1 64 4f 3c
       0.050855707 -0.016042512 -0.029390171 0.012658284
0000c0 99 ea 0b 3d c3 fb 98 ba 02 25 dd 3a 6e 75 50 3b
       0.034159277 -0.001167171 0.0016871991 0.0031808275
0000d0 90 b1 95 3c e2 80 82 3c 34 40 21 3d cd 3a 21 3d
       0.018273145 0.015930597 0.03936787 0.039362717
0000e0 e8 23 94 bd 51 31 5c bd 31 d2 91 3d 75 56 2f bc
       -0.07233411 -0.05375797 0.07120169 -0.010701765
0000f0 23 e8 01 bd 96 a1 0c bb 40 5f df bc ad 05 3c bc
       -0.031715523 -0.0021458617 -0.027267098 -0.011475963
000100 da 82 07 bc 0f d6 04 bc c7 28 b4 bc 93 b3 2e 3c
       -0.008270944 -0.008107676 -0.0219921 0.010662931
000110 9e 09 06 3d 69 e6 26 3c b7 3c c1 3c 9a 11 5e bc
       0.032724015 0.01018677 0.023588521 -0.013554001
000120 e4 36 d6 b9 e4 cd 2a 3c 86 b6 53 3c fc 6d 6d 3c
       -0.00040858157 0.010425065 0.012921935 0.014491554
000130 8d 24 c4 bb c3 c3 14 3c cd 40 11 3d e6 bb ad 3c
       -0.0059858025 0.009079876 0.03546219 0.021207761
000140 1c 94 35 3c ed b1 fd 3c 79 c9 f6 bc 3f 14 40 bb
       0.011082675 0.03096863 -0.030125367 -0.0029308943
000150 e1 6a 21 bc 81 9f f3 3c d0 d2 e8 bc 78 55 b4 3c
       -0.009852142 0.029739143 -0.028420836 0.02201341
000160 48 68 d6 3c 4b 0c 09 3d 42 6c 1c bb 29 2a 87 bc
       0.026172772 0.03345899 -0.0023868238 -0.016499596
000170 26 ce 27 3d 08 e1 3f bd ff 07 74 bc 7a 5e 8b 3c
       0.040968083 -0.046845466 -0.014894485 0.017012823
000180 3c f7 c4 bc 4f 43 41 bd 47 51 be 3c 5c c3 14 bd
       -0.024043672 -0.04718333 0.023232115 -0.03631912
000190 10 da 31 bc 55 d3 1a 3d e7 f9 13 3d 38 b4 fa bc
       -0.010855213 0.0377992 0.036126997 -0.030603513
0001a0 92 c6 b3 3a cf 0c de ba 86 e5 db 3c 99 09 45 bd
       0.0013715795 -0.0016941073 0.026842844 -0.048104856
0001b0 7c 29 0b 3d 5e 5a 1b 3d 8f a4 68 3d 6d 71 19 bd
       0.03397511 0.037927978 0.05679756 -0.037461687
0001c0 ae 55 60 bd 20 88 13 bd 5e 87 0d 3d 3d 9a 44 bc
       -0.05476921 -0.03601849 0.034552924 -0.011999664
0001d0 f2 33 76 bd 80 c8 33 bd 4c 46 24 3d 26 ac 89 bc
       -0.060108133 -0.043892384 0.040106103 -0.01680572
0001e0 84 16 11 bc 9e 4f 5b bd ce d7 7d 3d d8 ba 5e 3b
       -0.008855466 -0.053542726 0.061973386 0.003398588
0001f0 e6 0d ee 3c 6f e1 6a bd 1a 94 84 3d 73 93 37 3b
       0.029059362 -0.057343896 0.06473561 0.002801147

sequential_7_1/dense_28_1/MatMul f4 [128, 17]
000000 bd 5d 26 be bf 9f 48 be 86 05 08 be 40 94 07 3e
       -0.16246696 -0.19592188 -0.13283357 0.13240147
000010 05 51 db 3d c0 ee 18 be d6 8a 71 3b f7 92 dd 3d
       0.107088126 -0.14934826 0.0036856434 0.10819047
000020 db dd 2d 3d ff 87 14 3e 48 18 bb 3d bf 1e bd bd
       0.042447906 0.14505003 0.09135491 -0.0923438
000030 43 4e 2f bc 62 30 3c be 28 a0 6a bd a1 10 b5 bc
       -0.010699811 -0.18377832 -0.057281643 -0.022102656
000040 54 38 89 3c bf 47 29 3e 4f 93 92 3d d4 18 53 3e
       0.016750492 0.16531275 0.07157003 0.2061494
000050 1e 7f af 3d e8 91 ce 3d 2f c9 a7 3d 8b cd e5 bd
       0.085691676 0.10086423 0.081926696 -0.11220845
000060 8c 64 e5 3d fc 3b 5a 3c 7c d3 df bd 20 d4 c8 bd
       0.112008184 0.013319965 -0.10929009 -0.09806085
000070 1b 50 79 bd 20 6c 25 be 9d 4f f2 3c 69 1f f0 3d
       -0.06086741 -0.16154528 0.029578978 0.11724741
000080 19 5a 1c 3e 51 17 32 3e ef 84 cf bd 64 a2 1a 3d
       0.15268745 0.17391707 -0.10132777 0.037752524
000090 40 05 18 be 93 0a 01 3d 5a 07 04 be 63 e6 2d be
       -0.14845753 0.031504225 -0.1289343 -0.16982417
0000a0 30 fd 86 3d 6c 23 99 3c 23 21 48 be db ee 24 be
       0.065912604 0.018693648 -0.1954389 -0.16106741
0000b0 d6 39 15 be f3 5f 0f be 89 30 1e 3e 27 7e fc bd
       -0.14572844 -0.14001445 0.15448202 -0.12328749
0000c0 00 6c e3 3d 7d 73 16 bd 91 ff 23 bc 1b 58 5b bc
       0.11104584 -0.036731232 -0.010009662 -0.013387705
0000d0 4e 69 7d bd 11 d9 28 be b6 d3 31 be 47 28 76 bc
       -0.061868005 -0.16489054 -0.17365918 -0.015024251
0000e0 ca e9 34 bd 48 3f 53 bd ce 9b c2 bd 56 3a 9c bd
       -0.04416827 -0.05157402 -0.09502374 -0.07628314
0000f0 ea 9c fd 3c 7a 43 06 3e 47 ad 70 3d b9 61 ba bb
       0.030958612 0.13111678 0.058759 -0.005687919
000100 ea 47 8b bd 5c 16 e3 bd fc e8 14 be 2f e0 fd bd
       -0.06800826 -0.11088249 -0.14542001 -0.12396275
000110 fa 12 3e be a8 3f e7 3d a3 da 12 be 59 ba d8 3c
       -0.18561926 0.11291438 -0.14341216 0.026456045
000120 84 b9 b0 3d b4 19 3a be f9 8c 39 3e 22 e8 6c bd
       0.08629134 -0.18173867 0.18120183 -0.057838567
000130 3a 6e 3b 3e 77 41 4a bd d2 10 68 bc e1 f9 2d be
       0.18303767 -0.04937884 -0.0141641665 -0.16989852
000140 c4 b6 86 3d 00 d9 97 3d ba 3e cb bd 15 4f 94 bb
       0.065778285 0.07414436 -0.099240735 -0.004526029
000150 a8 73 e3 3d 48 7a b8 bd ed c5 13 be bf f9 4f bd
       0.11106044 -0.09007698 -0.14430971 -0.050775286
000160 2e c8 1a 3e 9b 15 18 3d cd 81 1d be e0 49 31 3d
       0.15115425 0.03712998 -0.15381546 0.043283343
000170 56 a7 4b bc 6c d2 00 3e 81 de 1a be 71 bb 25 be
       -0.012430033 0.1258027 -0.15123941 -0.16184784
000180 1f ff 0b 3a 9a 41 ce 3d 0e 67 15 be 3e 05 41 3e
       0.0005340445 0.10071106 -0.14590093 0.18849656
000190 08 52 4c ba 7b e4 d6 bd ed 56 10 bb a9 c9 05 3e
       -0.0007794206 -0.10492798 -0.0022024468 0.13065208
0001a0 33 84 11 3e f1 31 25 3e 1a bb 1d 3c 72 6f 88 3d
       0.14210586 0.16132332 0.009627128 0.066618815
0001b0 b0 74 1f 3e cc 8c fd bd 1f 7f 15 3e 42 5e da bd
       0.15571856 -0.123803705 0.14599274 -0.106625095
0001c0 b1 09 2f bc ea 90 cc bd e8 e1 09 bd c7 4a 01 bd
       -0.010683463 -0.09988578 -0.033662707 -0.031565454
0001d0 05 bf 1b 3d f5 09 57 3d 3c 85 f8 bd af 07 d2 3d
       0.038023967 0.05249973 -0.121347874 0.10255372
0001e0 58 18 27 3d a7 a1 fc 3d f9 dc bb 3d 71 dc ae 3d
       0.0407947 0.1233552 0.091730066 0.085381396
0001f0 16 7a d4 bd 2d 91 91 bd 45 6c 18 3e d0 54 43 bd
       -0.103748485 -0.07107768 0.14885052 -0.047688305
000200 6e 3b 07 3e 4e e9 a0 3d be 50 1f 3e b4 02 13 3e
       0.13206264 0.07856999 0.15558144 0.143565
000210 66 20 a6 3d 71 58 dc 3d f8 8c 28 3e bd 09 5e 3c
       0.08111648 0.10759056 0.16460025 0.0135521265
000220 d3 08 0f 3e a8 70 a0 b9 4e 97 1c 3d 74 bb 42 bd
       0.1396821 -0.00030601514 0.038230233 -0.04754205
000230 4c 45 e7 bd 25 04 9f bc dc 22 12 be a6 fd 20 3e
       -0.11292514 -0.019411156 -0.1427111 0.15721759
000240 8b 35 fe bd 2a 2f e9 3d d7 95 01 3e c7 db 38 bd
       -0.12412556 0.11385949 0.12654816 -0.04513147
000250 e7 1a 72 3d cf c2 39 be 72 65 3b 3e 04 76 29 3e
       0.059107687 -0.1814072 0.18300417 0.16548926
000260 35 b7 3b be e0 fb c7 3d 36 ef 1c be 31 45 27 3e
       -0.18331607 0.09764838 -0.15325627 0.16334988
000270 d0 ad f0 3d bf 09 fb bd ef 05 d5 bd c4 bf e8 bc
       0.11751902 -0.12257718 -0.10401522 -0.028411753
000280 7a b2 06 3d b0 36 f8 bd e6 bd 59 3d 8b 7c 04 bd
       0.032885052 -0.12119806 0.053159617 -0.032345336
000290 a4 f7 d7 bd 01 7b 41 bc 19 f9 63 be 8c 39 6d 3d
       -0.105452806 -0.011809112 -0.22262992 0.05791621
0002a0 c3 28 5c bb 15 56 72 3a 77 eb 45 be fb 61 99 bc
       -0.0033593632 0.00092443946 -0.19328104 -0.018723479
0002b0 c0 aa e4 3d 25 90 ba 3d e5 e7 44 be bc 9c 1a bd
       0.111653805 0.09109525 -0.19229086 -0.03774713
0002c0 14 f0 47 be c3 3b 25 3e df e8 02 3c 58 2a ae 3d
       -0.19525176 0.16136079 0.007990091 0.0850417
0002d0 64 a9 0d 3e ae f0 ba 3c 02 c1 1c be 89 8b 8f bc
       0.13834149 0.022819843 -0.15308002 -0.01752259
0002e0 24 d8 08 3e 5c da c0 bd bc bf b1 3d 5c 24 af 3b
       0.13363701 -0.09416649 0.086791486 0.0053449105
0002f0 be 47 09 be 01 fe 42 3e 16 90 ca bd 4b 7b 83 3b
       -0.13406274 0.19042207 -0.098907635 0.0040125004
000300 f4 0e 3f 3e 88 d4 b0 3d 88 2f 10 3e 37 64 43 3d
       0.18658048 0.08634287 0.14080632 0.047702994
000310 b7 5d 86 3d ff 23 cf 3d 19 52 ba bd 77 e4 5f bd
       0.065608434 0.101142876 -0.0909769 -0.05466124
000320 1e d7 01 3e ce b8 90 3d 65 22 43 bd 60 0f 36 be
       0.12679717 0.07066499 -0.047640223 -0.17779303
000330 fe 0b ea bd 98 3a 92 3d 83 d3 c5 3d ae cd 86 3d
       -0.114280686 0.07140082 0.09659483 0.06582199
000340 87 fa 14 3e 5e 81 cd bc 4d 65 98 bc be a7 52 3d
       0.14548694 -0.025086101 -0.018602991 0.051429503
000350 3d 11 24 be 0f c6 93 3d 50 57 16 3d 36 d9 ff 3b
       -0.16022201 0.07215511 0.03670436 0.007807876
000360 2c 57 5e bb ea 7a 0b be 6f 2a aa 3c 9e ae 3c 3e
       -0.003392647 -0.13621107 0.020772187 0.18425986
000370 da f9 bd 3d 1d ab e7 3c 99 88 70 bd 92 59 af bd
       0.09276171 0.028279835 -0.05872402 -0.08562006
000380 33 02 ae bd eb a5 c3 3d 83 4a c1 bd 9e 0c ac 3d
       -0.08496513 0.09553131 -0.0943804 0.08400844
000390 0f bc 56 bd aa 1c 5a 3c 16 ee c8 3b 51 94 ab 3c
       -0.05242544 0.013312498 0.0061318977 0.020944746
0003a0 99 73 02 be f3 45 d4 3d f7 2b 02 be 8d 35 2c 3e
       -0.1273941 0.10364904 -0.12712084 0.16817303
0003b0 ee 73 20 3e 0b aa 30 be 52 19 0a be 05 ff 2e 3e
       0.15669224 -0.17252366 -0.13486221 0.1708947
0003c0 68 f9 26 3e e4 01 cf bd 59 77 a7 bc 88 7c cc 3d
       0.16306078 -0.101077825 -0.020442652 0.0998469
0003d0 3f 6d 92 3b 7c 62 25 3d a4 72 0e 3e 45 51 5f 3d
       0.0044685896 0.040377125 0.1391092 0.054520864
0003e0 9d 73 ec bd 90 af 65 3d 7c 11 82 3d 88 e6 05 3c
       -0.11545489 0.056075633 0.06350991 0.008172639
0003f0 3a d2 1f bd 37 11 3a be ea 7d f3 3d fe 6f 90 3d
       -0.039018847 -0.1817063 0.118892506 0.07052611
